{"format": "layers-model", "generatedBy": "keras v2.2.5", "convertedBy": "TensorFlow.js Converter v1.2.10.1", "modelTopology": {"keras_version": "2.2.5", "backend": "tensorflow", "model_config": {"class_name": "Model", "config": {"name": "model_2", "layers": [{"name": "input_0", "class_name": "InputLayer", "config": {"batch_input_shape": [null, 3, 224, 224], "dtype": "float32", "sparse": false, "name": "input_0"}, "inbound_nodes": []}, {"name": "399_pad", "class_name": "ZeroPadding2D", "config": {"name": "399_pad", "trainable": true, "dtype": "float32", "padding": [[1, 1], [1, 1]], "data_format": "channels_first"}, "inbound_nodes": [[["input_0", 0, 0, {}]]]}, {"name": "399", "class_name": "Conv2D", "config": {"name": "399", "trainable": true, "dtype": "float32", "filters": 32, "kernel_size": [3, 3], "strides": [2, 2], "padding": "valid", "data_format": "channels_first", "dilation_rate": [1, 1], "activation": "linear", "use_bias": false, "kernel_initializer": {"class_name": "Zeros", "config": {}}, "bias_initializer": {"class_name": "Zeros", "config": {}}, "kernel_regularizer": null, "bias_regularizer": null, "activity_regularizer": null, "kernel_constraint": null, "bias_constraint": null}, "inbound_nodes": [[["399_pad", 0, 0, {}]]]}, {"name": "400", "class_name": "BatchNormalization", "config": {"name": "400", "trainable": true, "dtype": "float32", "axis": 1, "momentum": 0.8999999761581421, "epsilon": 9.999999747378752e-06, "center": true, "scale": true, "beta_initializer": {"class_name": "Zeros", "config": {}}, "gamma_initializer": {"class_name": "Ones", "config": {}}, "moving_mean_initializer": {"class_name": "Zeros", "config": {}}, "moving_variance_initializer": {"class_name": "Ones", "config": {}}, "beta_regularizer": null, "gamma_regularizer": null, "beta_constraint": null, "gamma_constraint": null}, "inbound_nodes": [[["399", 0, 0, {}]]]}, {"name": "401", "class_name": "ReLU", "config": {"name": "401", "trainable": true, "dtype": "float32", "max_value": 6.0, "negative_slope": 0.0, "threshold": 0.0}, "inbound_nodes": [[["400", 0, 0, {}]]]}, {"name": "402_pad", "class_name": "ZeroPadding2D", "config": {"name": "402_pad", "trainable": true, "dtype": "float32", "padding": [[1, 1], [1, 1]], "data_format": "channels_first"}, "inbound_nodes": [[["401", 0, 0, {}]]]}, {"name": "402", "class_name": "DepthwiseConv2D", "config": {"name": "402", "trainable": true, "dtype": "float32", "kernel_size": [3, 3], "strides": [1, 1], "padding": "valid", "data_format": "channels_first", "dilation_rate": [1, 1], "activation": "linear", "use_bias": false, "bias_initializer": {"class_name": "Zeros", "config": {}}, "bias_regularizer": null, "activity_regularizer": null, "bias_constraint": null, "depth_multiplier": 1, "depthwise_initializer": {"class_name": "VarianceScaling", "config": {"scale": 1.0, "mode": "fan_avg", "distribution": "uniform", "seed": null}}, "depthwise_regularizer": null, "depthwise_constraint": null}, "inbound_nodes": [[["402_pad", 0, 0, {}]]]}, {"name": "403", "class_name": "BatchNormalization", "config": {"name": "403", "trainable": true, "dtype": "float32", "axis": 1, "momentum": 0.8999999761581421, "epsilon": 9.999999747378752e-06, "center": true, "scale": true, "beta_initializer": {"class_name": "Zeros", "config": {}}, "gamma_initializer": {"class_name": "Ones", "config": {}}, "moving_mean_initializer": {"class_name": "Zeros", "config": {}}, "moving_variance_initializer": {"class_name": "Ones", "config": {}}, "beta_regularizer": null, "gamma_regularizer": null, "beta_constraint": null, "gamma_constraint": null}, "inbound_nodes": [[["402", 0, 0, {}]]]}, {"name": "404", "class_name": "ReLU", "config": {"name": "404", "trainable": true, "dtype": "float32", "max_value": 6.0, "negative_slope": 0.0, "threshold": 0.0}, "inbound_nodes": [[["403", 0, 0, {}]]]}, {"name": "405", "class_name": "Conv2D", "config": {"name": "405", "trainable": true, "dtype": "float32", "filters": 16, "kernel_size": [1, 1], "strides": [1, 1], "padding": "valid", "data_format": "channels_first", "dilation_rate": [1, 1], "activation": "linear", "use_bias": false, "kernel_initializer": {"class_name": "Zeros", "config": {}}, "bias_initializer": {"class_name": "Zeros", "config": {}}, "kernel_regularizer": null, "bias_regularizer": null, "activity_regularizer": null, "kernel_constraint": null, "bias_constraint": null}, "inbound_nodes": [[["404", 0, 0, {}]]]}, {"name": "406", "class_name": "BatchNormalization", "config": {"name": "406", "trainable": true, "dtype": "float32", "axis": 1, "momentum": 0.8999999761581421, "epsilon": 9.999999747378752e-06, "center": true, "scale": true, "beta_initializer": {"class_name": "Zeros", "config": {}}, "gamma_initializer": {"class_name": "Ones", "config": {}}, "moving_mean_initializer": {"class_name": "Zeros", "config": {}}, "moving_variance_initializer": {"class_name": "Ones", "config": {}}, "beta_regularizer": null, "gamma_regularizer": null, "beta_constraint": null, "gamma_constraint": null}, "inbound_nodes": [[["405", 0, 0, {}]]]}, {"name": "407", "class_name": "Conv2D", "config": {"name": "407", "trainable": true, "dtype": "float32", "filters": 96, "kernel_size": [1, 1], "strides": [1, 1], "padding": "valid", "data_format": "channels_first", "dilation_rate": [1, 1], "activation": "linear", "use_bias": false, "kernel_initializer": {"class_name": "Zeros", "config": {}}, "bias_initializer": {"class_name": "Zeros", "config": {}}, "kernel_regularizer": null, "bias_regularizer": null, "activity_regularizer": null, "kernel_constraint": null, "bias_constraint": null}, "inbound_nodes": [[["406", 0, 0, {}]]]}, {"name": "408", "class_name": "BatchNormalization", "config": {"name": "408", "trainable": true, "dtype": "float32", "axis": 1, "momentum": 0.8999999761581421, "epsilon": 9.999999747378752e-06, "center": true, "scale": true, "beta_initializer": {"class_name": "Zeros", "config": {}}, "gamma_initializer": {"class_name": "Ones", "config": {}}, "moving_mean_initializer": {"class_name": "Zeros", "config": {}}, "moving_variance_initializer": {"class_name": "Ones", "config": {}}, "beta_regularizer": null, "gamma_regularizer": null, "beta_constraint": null, "gamma_constraint": null}, "inbound_nodes": [[["407", 0, 0, {}]]]}, {"name": "409", "class_name": "ReLU", "config": {"name": "409", "trainable": true, "dtype": "float32", "max_value": 6.0, "negative_slope": 0.0, "threshold": 0.0}, "inbound_nodes": [[["408", 0, 0, {}]]]}, {"name": "410_pad", "class_name": "ZeroPadding2D", "config": {"name": "410_pad", "trainable": true, "dtype": "float32", "padding": [[1, 1], [1, 1]], "data_format": "channels_first"}, "inbound_nodes": [[["409", 0, 0, {}]]]}, {"name": "410", "class_name": "DepthwiseConv2D", "config": {"name": "410", "trainable": true, "dtype": "float32", "kernel_size": [3, 3], "strides": [2, 2], "padding": "valid", "data_format": "channels_first", "dilation_rate": [1, 1], "activation": "linear", "use_bias": false, "bias_initializer": {"class_name": "Zeros", "config": {}}, "bias_regularizer": null, "activity_regularizer": null, "bias_constraint": null, "depth_multiplier": 1, "depthwise_initializer": {"class_name": "VarianceScaling", "config": {"scale": 1.0, "mode": "fan_avg", "distribution": "uniform", "seed": null}}, "depthwise_regularizer": null, "depthwise_constraint": null}, "inbound_nodes": [[["410_pad", 0, 0, {}]]]}, {"name": "411", "class_name": "BatchNormalization", "config": {"name": "411", "trainable": true, "dtype": "float32", "axis": 1, "momentum": 0.8999999761581421, "epsilon": 9.999999747378752e-06, "center": true, "scale": true, "beta_initializer": {"class_name": "Zeros", "config": {}}, "gamma_initializer": {"class_name": "Ones", "config": {}}, "moving_mean_initializer": {"class_name": "Zeros", "config": {}}, "moving_variance_initializer": {"class_name": "Ones", "config": {}}, "beta_regularizer": null, "gamma_regularizer": null, "beta_constraint": null, "gamma_constraint": null}, "inbound_nodes": [[["410", 0, 0, {}]]]}, {"name": "412", "class_name": "ReLU", "config": {"name": "412", "trainable": true, "dtype": "float32", "max_value": 6.0, "negative_slope": 0.0, "threshold": 0.0}, "inbound_nodes": [[["411", 0, 0, {}]]]}, {"name": "413", "class_name": "Conv2D", "config": {"name": "413", "trainable": true, "dtype": "float32", "filters": 24, "kernel_size": [1, 1], "strides": [1, 1], "padding": "valid", "data_format": "channels_first", "dilation_rate": [1, 1], "activation": "linear", "use_bias": false, "kernel_initializer": {"class_name": "Zeros", "config": {}}, "bias_initializer": {"class_name": "Zeros", "config": {}}, "kernel_regularizer": null, "bias_regularizer": null, "activity_regularizer": null, "kernel_constraint": null, "bias_constraint": null}, "inbound_nodes": [[["412", 0, 0, {}]]]}, {"name": "414", "class_name": "BatchNormalization", "config": {"name": "414", "trainable": true, "dtype": "float32", "axis": 1, "momentum": 0.8999999761581421, "epsilon": 9.999999747378752e-06, "center": true, "scale": true, "beta_initializer": {"class_name": "Zeros", "config": {}}, "gamma_initializer": {"class_name": "Ones", "config": {}}, "moving_mean_initializer": {"class_name": "Zeros", "config": {}}, "moving_variance_initializer": {"class_name": "Ones", "config": {}}, "beta_regularizer": null, "gamma_regularizer": null, "beta_constraint": null, "gamma_constraint": null}, "inbound_nodes": [[["413", 0, 0, {}]]]}, {"name": "415", "class_name": "Conv2D", "config": {"name": "415", "trainable": true, "dtype": "float32", "filters": 144, "kernel_size": [1, 1], "strides": [1, 1], "padding": "valid", "data_format": "channels_first", "dilation_rate": [1, 1], "activation": "linear", "use_bias": false, "kernel_initializer": {"class_name": "Zeros", "config": {}}, "bias_initializer": {"class_name": "Zeros", "config": {}}, "kernel_regularizer": null, "bias_regularizer": null, "activity_regularizer": null, "kernel_constraint": null, "bias_constraint": null}, "inbound_nodes": [[["414", 0, 0, {}]]]}, {"name": "416", "class_name": "BatchNormalization", "config": {"name": "416", "trainable": true, "dtype": "float32", "axis": 1, "momentum": 0.8999999761581421, "epsilon": 9.999999747378752e-06, "center": true, "scale": true, "beta_initializer": {"class_name": "Zeros", "config": {}}, "gamma_initializer": {"class_name": "Ones", "config": {}}, "moving_mean_initializer": {"class_name": "Zeros", "config": {}}, "moving_variance_initializer": {"class_name": "Ones", "config": {}}, "beta_regularizer": null, "gamma_regularizer": null, "beta_constraint": null, "gamma_constraint": null}, "inbound_nodes": [[["415", 0, 0, {}]]]}, {"name": "417", "class_name": "ReLU", "config": {"name": "417", "trainable": true, "dtype": "float32", "max_value": 6.0, "negative_slope": 0.0, "threshold": 0.0}, "inbound_nodes": [[["416", 0, 0, {}]]]}, {"name": "418_pad", "class_name": "ZeroPadding2D", "config": {"name": "418_pad", "trainable": true, "dtype": "float32", "padding": [[1, 1], [1, 1]], "data_format": "channels_first"}, "inbound_nodes": [[["417", 0, 0, {}]]]}, {"name": "418", "class_name": "DepthwiseConv2D", "config": {"name": "418", "trainable": true, "dtype": "float32", "kernel_size": [3, 3], "strides": [1, 1], "padding": "valid", "data_format": "channels_first", "dilation_rate": [1, 1], "activation": "linear", "use_bias": false, "bias_initializer": {"class_name": "Zeros", "config": {}}, "bias_regularizer": null, "activity_regularizer": null, "bias_constraint": null, "depth_multiplier": 1, "depthwise_initializer": {"class_name": "VarianceScaling", "config": {"scale": 1.0, "mode": "fan_avg", "distribution": "uniform", "seed": null}}, "depthwise_regularizer": null, "depthwise_constraint": null}, "inbound_nodes": [[["418_pad", 0, 0, {}]]]}, {"name": "419", "class_name": "BatchNormalization", "config": {"name": "419", "trainable": true, "dtype": "float32", "axis": 1, "momentum": 0.8999999761581421, "epsilon": 9.999999747378752e-06, "center": true, "scale": true, "beta_initializer": {"class_name": "Zeros", "config": {}}, "gamma_initializer": {"class_name": "Ones", "config": {}}, "moving_mean_initializer": {"class_name": "Zeros", "config": {}}, "moving_variance_initializer": {"class_name": "Ones", "config": {}}, "beta_regularizer": null, "gamma_regularizer": null, "beta_constraint": null, "gamma_constraint": null}, "inbound_nodes": [[["418", 0, 0, {}]]]}, {"name": "420", "class_name": "ReLU", "config": {"name": "420", "trainable": true, "dtype": "float32", "max_value": 6.0, "negative_slope": 0.0, "threshold": 0.0}, "inbound_nodes": [[["419", 0, 0, {}]]]}, {"name": "421", "class_name": "Conv2D", "config": {"name": "421", "trainable": true, "dtype": "float32", "filters": 24, "kernel_size": [1, 1], "strides": [1, 1], "padding": "valid", "data_format": "channels_first", "dilation_rate": [1, 1], "activation": "linear", "use_bias": false, "kernel_initializer": {"class_name": "Zeros", "config": {}}, "bias_initializer": {"class_name": "Zeros", "config": {}}, "kernel_regularizer": null, "bias_regularizer": null, "activity_regularizer": null, "kernel_constraint": null, "bias_constraint": null}, "inbound_nodes": [[["420", 0, 0, {}]]]}, {"name": "422", "class_name": "BatchNormalization", "config": {"name": "422", "trainable": true, "dtype": "float32", "axis": 1, "momentum": 0.8999999761581421, "epsilon": 9.999999747378752e-06, "center": true, "scale": true, "beta_initializer": {"class_name": "Zeros", "config": {}}, "gamma_initializer": {"class_name": "Ones", "config": {}}, "moving_mean_initializer": {"class_name": "Zeros", "config": {}}, "moving_variance_initializer": {"class_name": "Ones", "config": {}}, "beta_regularizer": null, "gamma_regularizer": null, "beta_constraint": null, "gamma_constraint": null}, "inbound_nodes": [[["421", 0, 0, {}]]]}, {"name": "423", "class_name": "Add", "config": {"name": "423", "trainable": true, "dtype": "float32"}, "inbound_nodes": [[["414", 0, 0, {}], ["422", 0, 0, {}]]]}, {"name": "424", "class_name": "Conv2D", "config": {"name": "424", "trainable": true, "dtype": "float32", "filters": 144, "kernel_size": [1, 1], "strides": [1, 1], "padding": "valid", "data_format": "channels_first", "dilation_rate": [1, 1], "activation": "linear", "use_bias": false, "kernel_initializer": {"class_name": "Zeros", "config": {}}, "bias_initializer": {"class_name": "Zeros", "config": {}}, "kernel_regularizer": null, "bias_regularizer": null, "activity_regularizer": null, "kernel_constraint": null, "bias_constraint": null}, "inbound_nodes": [[["423", 0, 0, {}]]]}, {"name": "425", "class_name": "BatchNormalization", "config": {"name": "425", "trainable": true, "dtype": "float32", "axis": 1, "momentum": 0.8999999761581421, "epsilon": 9.999999747378752e-06, "center": true, "scale": true, "beta_initializer": {"class_name": "Zeros", "config": {}}, "gamma_initializer": {"class_name": "Ones", "config": {}}, "moving_mean_initializer": {"class_name": "Zeros", "config": {}}, "moving_variance_initializer": {"class_name": "Ones", "config": {}}, "beta_regularizer": null, "gamma_regularizer": null, "beta_constraint": null, "gamma_constraint": null}, "inbound_nodes": [[["424", 0, 0, {}]]]}, {"name": "426", "class_name": "ReLU", "config": {"name": "426", "trainable": true, "dtype": "float32", "max_value": 6.0, "negative_slope": 0.0, "threshold": 0.0}, "inbound_nodes": [[["425", 0, 0, {}]]]}, {"name": "427_pad", "class_name": "ZeroPadding2D", "config": {"name": "427_pad", "trainable": true, "dtype": "float32", "padding": [[1, 1], [1, 1]], "data_format": "channels_first"}, "inbound_nodes": [[["426", 0, 0, {}]]]}, {"name": "427", "class_name": "DepthwiseConv2D", "config": {"name": "427", "trainable": true, "dtype": "float32", "kernel_size": [3, 3], "strides": [2, 2], "padding": "valid", "data_format": "channels_first", "dilation_rate": [1, 1], "activation": "linear", "use_bias": false, "bias_initializer": {"class_name": "Zeros", "config": {}}, "bias_regularizer": null, "activity_regularizer": null, "bias_constraint": null, "depth_multiplier": 1, "depthwise_initializer": {"class_name": "VarianceScaling", "config": {"scale": 1.0, "mode": "fan_avg", "distribution": "uniform", "seed": null}}, "depthwise_regularizer": null, "depthwise_constraint": null}, "inbound_nodes": [[["427_pad", 0, 0, {}]]]}, {"name": "428", "class_name": "BatchNormalization", "config": {"name": "428", "trainable": true, "dtype": "float32", "axis": 1, "momentum": 0.8999999761581421, "epsilon": 9.999999747378752e-06, "center": true, "scale": true, "beta_initializer": {"class_name": "Zeros", "config": {}}, "gamma_initializer": {"class_name": "Ones", "config": {}}, "moving_mean_initializer": {"class_name": "Zeros", "config": {}}, "moving_variance_initializer": {"class_name": "Ones", "config": {}}, "beta_regularizer": null, "gamma_regularizer": null, "beta_constraint": null, "gamma_constraint": null}, "inbound_nodes": [[["427", 0, 0, {}]]]}, {"name": "429", "class_name": "ReLU", "config": {"name": "429", "trainable": true, "dtype": "float32", "max_value": 6.0, "negative_slope": 0.0, "threshold": 0.0}, "inbound_nodes": [[["428", 0, 0, {}]]]}, {"name": "430", "class_name": "Conv2D", "config": {"name": "430", "trainable": true, "dtype": "float32", "filters": 32, "kernel_size": [1, 1], "strides": [1, 1], "padding": "valid", "data_format": "channels_first", "dilation_rate": [1, 1], "activation": "linear", "use_bias": false, "kernel_initializer": {"class_name": "Zeros", "config": {}}, "bias_initializer": {"class_name": "Zeros", "config": {}}, "kernel_regularizer": null, "bias_regularizer": null, "activity_regularizer": null, "kernel_constraint": null, "bias_constraint": null}, "inbound_nodes": [[["429", 0, 0, {}]]]}, {"name": "431", "class_name": "BatchNormalization", "config": {"name": "431", "trainable": true, "dtype": "float32", "axis": 1, "momentum": 0.8999999761581421, "epsilon": 9.999999747378752e-06, "center": true, "scale": true, "beta_initializer": {"class_name": "Zeros", "config": {}}, "gamma_initializer": {"class_name": "Ones", "config": {}}, "moving_mean_initializer": {"class_name": "Zeros", "config": {}}, "moving_variance_initializer": {"class_name": "Ones", "config": {}}, "beta_regularizer": null, "gamma_regularizer": null, "beta_constraint": null, "gamma_constraint": null}, "inbound_nodes": [[["430", 0, 0, {}]]]}, {"name": "432", "class_name": "Conv2D", "config": {"name": "432", "trainable": true, "dtype": "float32", "filters": 192, "kernel_size": [1, 1], "strides": [1, 1], "padding": "valid", "data_format": "channels_first", "dilation_rate": [1, 1], "activation": "linear", "use_bias": false, "kernel_initializer": {"class_name": "Zeros", "config": {}}, "bias_initializer": {"class_name": "Zeros", "config": {}}, "kernel_regularizer": null, "bias_regularizer": null, "activity_regularizer": null, "kernel_constraint": null, "bias_constraint": null}, "inbound_nodes": [[["431", 0, 0, {}]]]}, {"name": "433", "class_name": "BatchNormalization", "config": {"name": "433", "trainable": true, "dtype": "float32", "axis": 1, "momentum": 0.8999999761581421, "epsilon": 9.999999747378752e-06, "center": true, "scale": true, "beta_initializer": {"class_name": "Zeros", "config": {}}, "gamma_initializer": {"class_name": "Ones", "config": {}}, "moving_mean_initializer": {"class_name": "Zeros", "config": {}}, "moving_variance_initializer": {"class_name": "Ones", "config": {}}, "beta_regularizer": null, "gamma_regularizer": null, "beta_constraint": null, "gamma_constraint": null}, "inbound_nodes": [[["432", 0, 0, {}]]]}, {"name": "434", "class_name": "ReLU", "config": {"name": "434", "trainable": true, "dtype": "float32", "max_value": 6.0, "negative_slope": 0.0, "threshold": 0.0}, "inbound_nodes": [[["433", 0, 0, {}]]]}, {"name": "435_pad", "class_name": "ZeroPadding2D", "config": {"name": "435_pad", "trainable": true, "dtype": "float32", "padding": [[1, 1], [1, 1]], "data_format": "channels_first"}, "inbound_nodes": [[["434", 0, 0, {}]]]}, {"name": "435", "class_name": "DepthwiseConv2D", "config": {"name": "435", "trainable": true, "dtype": "float32", "kernel_size": [3, 3], "strides": [1, 1], "padding": "valid", "data_format": "channels_first", "dilation_rate": [1, 1], "activation": "linear", "use_bias": false, "bias_initializer": {"class_name": "Zeros", "config": {}}, "bias_regularizer": null, "activity_regularizer": null, "bias_constraint": null, "depth_multiplier": 1, "depthwise_initializer": {"class_name": "VarianceScaling", "config": {"scale": 1.0, "mode": "fan_avg", "distribution": "uniform", "seed": null}}, "depthwise_regularizer": null, "depthwise_constraint": null}, "inbound_nodes": [[["435_pad", 0, 0, {}]]]}, {"name": "436", "class_name": "BatchNormalization", "config": {"name": "436", "trainable": true, "dtype": "float32", "axis": 1, "momentum": 0.8999999761581421, "epsilon": 9.999999747378752e-06, "center": true, "scale": true, "beta_initializer": {"class_name": "Zeros", "config": {}}, "gamma_initializer": {"class_name": "Ones", "config": {}}, "moving_mean_initializer": {"class_name": "Zeros", "config": {}}, "moving_variance_initializer": {"class_name": "Ones", "config": {}}, "beta_regularizer": null, "gamma_regularizer": null, "beta_constraint": null, "gamma_constraint": null}, "inbound_nodes": [[["435", 0, 0, {}]]]}, {"name": "437", "class_name": "ReLU", "config": {"name": "437", "trainable": true, "dtype": "float32", "max_value": 6.0, "negative_slope": 0.0, "threshold": 0.0}, "inbound_nodes": [[["436", 0, 0, {}]]]}, {"name": "438", "class_name": "Conv2D", "config": {"name": "438", "trainable": true, "dtype": "float32", "filters": 32, "kernel_size": [1, 1], "strides": [1, 1], "padding": "valid", "data_format": "channels_first", "dilation_rate": [1, 1], "activation": "linear", "use_bias": false, "kernel_initializer": {"class_name": "Zeros", "config": {}}, "bias_initializer": {"class_name": "Zeros", "config": {}}, "kernel_regularizer": null, "bias_regularizer": null, "activity_regularizer": null, "kernel_constraint": null, "bias_constraint": null}, "inbound_nodes": [[["437", 0, 0, {}]]]}, {"name": "439", "class_name": "BatchNormalization", "config": {"name": "439", "trainable": true, "dtype": "float32", "axis": 1, "momentum": 0.8999999761581421, "epsilon": 9.999999747378752e-06, "center": true, "scale": true, "beta_initializer": {"class_name": "Zeros", "config": {}}, "gamma_initializer": {"class_name": "Ones", "config": {}}, "moving_mean_initializer": {"class_name": "Zeros", "config": {}}, "moving_variance_initializer": {"class_name": "Ones", "config": {}}, "beta_regularizer": null, "gamma_regularizer": null, "beta_constraint": null, "gamma_constraint": null}, "inbound_nodes": [[["438", 0, 0, {}]]]}, {"name": "440", "class_name": "Add", "config": {"name": "440", "trainable": true, "dtype": "float32"}, "inbound_nodes": [[["431", 0, 0, {}], ["439", 0, 0, {}]]]}, {"name": "441", "class_name": "Conv2D", "config": {"name": "441", "trainable": true, "dtype": "float32", "filters": 192, "kernel_size": [1, 1], "strides": [1, 1], "padding": "valid", "data_format": "channels_first", "dilation_rate": [1, 1], "activation": "linear", "use_bias": false, "kernel_initializer": {"class_name": "Zeros", "config": {}}, "bias_initializer": {"class_name": "Zeros", "config": {}}, "kernel_regularizer": null, "bias_regularizer": null, "activity_regularizer": null, "kernel_constraint": null, "bias_constraint": null}, "inbound_nodes": [[["440", 0, 0, {}]]]}, {"name": "442", "class_name": "BatchNormalization", "config": {"name": "442", "trainable": true, "dtype": "float32", "axis": 1, "momentum": 0.8999999761581421, "epsilon": 9.999999747378752e-06, "center": true, "scale": true, "beta_initializer": {"class_name": "Zeros", "config": {}}, "gamma_initializer": {"class_name": "Ones", "config": {}}, "moving_mean_initializer": {"class_name": "Zeros", "config": {}}, "moving_variance_initializer": {"class_name": "Ones", "config": {}}, "beta_regularizer": null, "gamma_regularizer": null, "beta_constraint": null, "gamma_constraint": null}, "inbound_nodes": [[["441", 0, 0, {}]]]}, {"name": "443", "class_name": "ReLU", "config": {"name": "443", "trainable": true, "dtype": "float32", "max_value": 6.0, "negative_slope": 0.0, "threshold": 0.0}, "inbound_nodes": [[["442", 0, 0, {}]]]}, {"name": "444_pad", "class_name": "ZeroPadding2D", "config": {"name": "444_pad", "trainable": true, "dtype": "float32", "padding": [[1, 1], [1, 1]], "data_format": "channels_first"}, "inbound_nodes": [[["443", 0, 0, {}]]]}, {"name": "444", "class_name": "DepthwiseConv2D", "config": {"name": "444", "trainable": true, "dtype": "float32", "kernel_size": [3, 3], "strides": [1, 1], "padding": "valid", "data_format": "channels_first", "dilation_rate": [1, 1], "activation": "linear", "use_bias": false, "bias_initializer": {"class_name": "Zeros", "config": {}}, "bias_regularizer": null, "activity_regularizer": null, "bias_constraint": null, "depth_multiplier": 1, "depthwise_initializer": {"class_name": "VarianceScaling", "config": {"scale": 1.0, "mode": "fan_avg", "distribution": "uniform", "seed": null}}, "depthwise_regularizer": null, "depthwise_constraint": null}, "inbound_nodes": [[["444_pad", 0, 0, {}]]]}, {"name": "445", "class_name": "BatchNormalization", "config": {"name": "445", "trainable": true, "dtype": "float32", "axis": 1, "momentum": 0.8999999761581421, "epsilon": 9.999999747378752e-06, "center": true, "scale": true, "beta_initializer": {"class_name": "Zeros", "config": {}}, "gamma_initializer": {"class_name": "Ones", "config": {}}, "moving_mean_initializer": {"class_name": "Zeros", "config": {}}, "moving_variance_initializer": {"class_name": "Ones", "config": {}}, "beta_regularizer": null, "gamma_regularizer": null, "beta_constraint": null, "gamma_constraint": null}, "inbound_nodes": [[["444", 0, 0, {}]]]}, {"name": "446", "class_name": "ReLU", "config": {"name": "446", "trainable": true, "dtype": "float32", "max_value": 6.0, "negative_slope": 0.0, "threshold": 0.0}, "inbound_nodes": [[["445", 0, 0, {}]]]}, {"name": "447", "class_name": "Conv2D", "config": {"name": "447", "trainable": true, "dtype": "float32", "filters": 32, "kernel_size": [1, 1], "strides": [1, 1], "padding": "valid", "data_format": "channels_first", "dilation_rate": [1, 1], "activation": "linear", "use_bias": false, "kernel_initializer": {"class_name": "Zeros", "config": {}}, "bias_initializer": {"class_name": "Zeros", "config": {}}, "kernel_regularizer": null, "bias_regularizer": null, "activity_regularizer": null, "kernel_constraint": null, "bias_constraint": null}, "inbound_nodes": [[["446", 0, 0, {}]]]}, {"name": "448", "class_name": "BatchNormalization", "config": {"name": "448", "trainable": true, "dtype": "float32", "axis": 1, "momentum": 0.8999999761581421, "epsilon": 9.999999747378752e-06, "center": true, "scale": true, "beta_initializer": {"class_name": "Zeros", "config": {}}, "gamma_initializer": {"class_name": "Ones", "config": {}}, "moving_mean_initializer": {"class_name": "Zeros", "config": {}}, "moving_variance_initializer": {"class_name": "Ones", "config": {}}, "beta_regularizer": null, "gamma_regularizer": null, "beta_constraint": null, "gamma_constraint": null}, "inbound_nodes": [[["447", 0, 0, {}]]]}, {"name": "449", "class_name": "Add", "config": {"name": "449", "trainable": true, "dtype": "float32"}, "inbound_nodes": [[["440", 0, 0, {}], ["448", 0, 0, {}]]]}, {"name": "450", "class_name": "Conv2D", "config": {"name": "450", "trainable": true, "dtype": "float32", "filters": 192, "kernel_size": [1, 1], "strides": [1, 1], "padding": "valid", "data_format": "channels_first", "dilation_rate": [1, 1], "activation": "linear", "use_bias": false, "kernel_initializer": {"class_name": "Zeros", "config": {}}, "bias_initializer": {"class_name": "Zeros", "config": {}}, "kernel_regularizer": null, "bias_regularizer": null, "activity_regularizer": null, "kernel_constraint": null, "bias_constraint": null}, "inbound_nodes": [[["449", 0, 0, {}]]]}, {"name": "451", "class_name": "BatchNormalization", "config": {"name": "451", "trainable": true, "dtype": "float32", "axis": 1, "momentum": 0.8999999761581421, "epsilon": 9.999999747378752e-06, "center": true, "scale": true, "beta_initializer": {"class_name": "Zeros", "config": {}}, "gamma_initializer": {"class_name": "Ones", "config": {}}, "moving_mean_initializer": {"class_name": "Zeros", "config": {}}, "moving_variance_initializer": {"class_name": "Ones", "config": {}}, "beta_regularizer": null, "gamma_regularizer": null, "beta_constraint": null, "gamma_constraint": null}, "inbound_nodes": [[["450", 0, 0, {}]]]}, {"name": "452", "class_name": "ReLU", "config": {"name": "452", "trainable": true, "dtype": "float32", "max_value": 6.0, "negative_slope": 0.0, "threshold": 0.0}, "inbound_nodes": [[["451", 0, 0, {}]]]}, {"name": "453_pad", "class_name": "ZeroPadding2D", "config": {"name": "453_pad", "trainable": true, "dtype": "float32", "padding": [[1, 1], [1, 1]], "data_format": "channels_first"}, "inbound_nodes": [[["452", 0, 0, {}]]]}, {"name": "453", "class_name": "DepthwiseConv2D", "config": {"name": "453", "trainable": true, "dtype": "float32", "kernel_size": [3, 3], "strides": [2, 2], "padding": "valid", "data_format": "channels_first", "dilation_rate": [1, 1], "activation": "linear", "use_bias": false, "bias_initializer": {"class_name": "Zeros", "config": {}}, "bias_regularizer": null, "activity_regularizer": null, "bias_constraint": null, "depth_multiplier": 1, "depthwise_initializer": {"class_name": "VarianceScaling", "config": {"scale": 1.0, "mode": "fan_avg", "distribution": "uniform", "seed": null}}, "depthwise_regularizer": null, "depthwise_constraint": null}, "inbound_nodes": [[["453_pad", 0, 0, {}]]]}, {"name": "454", "class_name": "BatchNormalization", "config": {"name": "454", "trainable": true, "dtype": "float32", "axis": 1, "momentum": 0.8999999761581421, "epsilon": 9.999999747378752e-06, "center": true, "scale": true, "beta_initializer": {"class_name": "Zeros", "config": {}}, "gamma_initializer": {"class_name": "Ones", "config": {}}, "moving_mean_initializer": {"class_name": "Zeros", "config": {}}, "moving_variance_initializer": {"class_name": "Ones", "config": {}}, "beta_regularizer": null, "gamma_regularizer": null, "beta_constraint": null, "gamma_constraint": null}, "inbound_nodes": [[["453", 0, 0, {}]]]}, {"name": "455", "class_name": "ReLU", "config": {"name": "455", "trainable": true, "dtype": "float32", "max_value": 6.0, "negative_slope": 0.0, "threshold": 0.0}, "inbound_nodes": [[["454", 0, 0, {}]]]}, {"name": "456", "class_name": "Conv2D", "config": {"name": "456", "trainable": true, "dtype": "float32", "filters": 64, "kernel_size": [1, 1], "strides": [1, 1], "padding": "valid", "data_format": "channels_first", "dilation_rate": [1, 1], "activation": "linear", "use_bias": false, "kernel_initializer": {"class_name": "Zeros", "config": {}}, "bias_initializer": {"class_name": "Zeros", "config": {}}, "kernel_regularizer": null, "bias_regularizer": null, "activity_regularizer": null, "kernel_constraint": null, "bias_constraint": null}, "inbound_nodes": [[["455", 0, 0, {}]]]}, {"name": "457", "class_name": "BatchNormalization", "config": {"name": "457", "trainable": true, "dtype": "float32", "axis": 1, "momentum": 0.8999999761581421, "epsilon": 9.999999747378752e-06, "center": true, "scale": true, "beta_initializer": {"class_name": "Zeros", "config": {}}, "gamma_initializer": {"class_name": "Ones", "config": {}}, "moving_mean_initializer": {"class_name": "Zeros", "config": {}}, "moving_variance_initializer": {"class_name": "Ones", "config": {}}, "beta_regularizer": null, "gamma_regularizer": null, "beta_constraint": null, "gamma_constraint": null}, "inbound_nodes": [[["456", 0, 0, {}]]]}, {"name": "458", "class_name": "Conv2D", "config": {"name": "458", "trainable": true, "dtype": "float32", "filters": 384, "kernel_size": [1, 1], "strides": [1, 1], "padding": "valid", "data_format": "channels_first", "dilation_rate": [1, 1], "activation": "linear", "use_bias": false, "kernel_initializer": {"class_name": "Zeros", "config": {}}, "bias_initializer": {"class_name": "Zeros", "config": {}}, "kernel_regularizer": null, "bias_regularizer": null, "activity_regularizer": null, "kernel_constraint": null, "bias_constraint": null}, "inbound_nodes": [[["457", 0, 0, {}]]]}, {"name": "459", "class_name": "BatchNormalization", "config": {"name": "459", "trainable": true, "dtype": "float32", "axis": 1, "momentum": 0.8999999761581421, "epsilon": 9.999999747378752e-06, "center": true, "scale": true, "beta_initializer": {"class_name": "Zeros", "config": {}}, "gamma_initializer": {"class_name": "Ones", "config": {}}, "moving_mean_initializer": {"class_name": "Zeros", "config": {}}, "moving_variance_initializer": {"class_name": "Ones", "config": {}}, "beta_regularizer": null, "gamma_regularizer": null, "beta_constraint": null, "gamma_constraint": null}, "inbound_nodes": [[["458", 0, 0, {}]]]}, {"name": "460", "class_name": "ReLU", "config": {"name": "460", "trainable": true, "dtype": "float32", "max_value": 6.0, "negative_slope": 0.0, "threshold": 0.0}, "inbound_nodes": [[["459", 0, 0, {}]]]}, {"name": "461_pad", "class_name": "ZeroPadding2D", "config": {"name": "461_pad", "trainable": true, "dtype": "float32", "padding": [[1, 1], [1, 1]], "data_format": "channels_first"}, "inbound_nodes": [[["460", 0, 0, {}]]]}, {"name": "461", "class_name": "DepthwiseConv2D", "config": {"name": "461", "trainable": true, "dtype": "float32", "kernel_size": [3, 3], "strides": [1, 1], "padding": "valid", "data_format": "channels_first", "dilation_rate": [1, 1], "activation": "linear", "use_bias": false, "bias_initializer": {"class_name": "Zeros", "config": {}}, "bias_regularizer": null, "activity_regularizer": null, "bias_constraint": null, "depth_multiplier": 1, "depthwise_initializer": {"class_name": "VarianceScaling", "config": {"scale": 1.0, "mode": "fan_avg", "distribution": "uniform", "seed": null}}, "depthwise_regularizer": null, "depthwise_constraint": null}, "inbound_nodes": [[["461_pad", 0, 0, {}]]]}, {"name": "462", "class_name": "BatchNormalization", "config": {"name": "462", "trainable": true, "dtype": "float32", "axis": 1, "momentum": 0.8999999761581421, "epsilon": 9.999999747378752e-06, "center": true, "scale": true, "beta_initializer": {"class_name": "Zeros", "config": {}}, "gamma_initializer": {"class_name": "Ones", "config": {}}, "moving_mean_initializer": {"class_name": "Zeros", "config": {}}, "moving_variance_initializer": {"class_name": "Ones", "config": {}}, "beta_regularizer": null, "gamma_regularizer": null, "beta_constraint": null, "gamma_constraint": null}, "inbound_nodes": [[["461", 0, 0, {}]]]}, {"name": "463", "class_name": "ReLU", "config": {"name": "463", "trainable": true, "dtype": "float32", "max_value": 6.0, "negative_slope": 0.0, "threshold": 0.0}, "inbound_nodes": [[["462", 0, 0, {}]]]}, {"name": "464", "class_name": "Conv2D", "config": {"name": "464", "trainable": true, "dtype": "float32", "filters": 64, "kernel_size": [1, 1], "strides": [1, 1], "padding": "valid", "data_format": "channels_first", "dilation_rate": [1, 1], "activation": "linear", "use_bias": false, "kernel_initializer": {"class_name": "Zeros", "config": {}}, "bias_initializer": {"class_name": "Zeros", "config": {}}, "kernel_regularizer": null, "bias_regularizer": null, "activity_regularizer": null, "kernel_constraint": null, "bias_constraint": null}, "inbound_nodes": [[["463", 0, 0, {}]]]}, {"name": "465", "class_name": "BatchNormalization", "config": {"name": "465", "trainable": true, "dtype": "float32", "axis": 1, "momentum": 0.8999999761581421, "epsilon": 9.999999747378752e-06, "center": true, "scale": true, "beta_initializer": {"class_name": "Zeros", "config": {}}, "gamma_initializer": {"class_name": "Ones", "config": {}}, "moving_mean_initializer": {"class_name": "Zeros", "config": {}}, "moving_variance_initializer": {"class_name": "Ones", "config": {}}, "beta_regularizer": null, "gamma_regularizer": null, "beta_constraint": null, "gamma_constraint": null}, "inbound_nodes": [[["464", 0, 0, {}]]]}, {"name": "466", "class_name": "Add", "config": {"name": "466", "trainable": true, "dtype": "float32"}, "inbound_nodes": [[["457", 0, 0, {}], ["465", 0, 0, {}]]]}, {"name": "467", "class_name": "Conv2D", "config": {"name": "467", "trainable": true, "dtype": "float32", "filters": 384, "kernel_size": [1, 1], "strides": [1, 1], "padding": "valid", "data_format": "channels_first", "dilation_rate": [1, 1], "activation": "linear", "use_bias": false, "kernel_initializer": {"class_name": "Zeros", "config": {}}, "bias_initializer": {"class_name": "Zeros", "config": {}}, "kernel_regularizer": null, "bias_regularizer": null, "activity_regularizer": null, "kernel_constraint": null, "bias_constraint": null}, "inbound_nodes": [[["466", 0, 0, {}]]]}, {"name": "468", "class_name": "BatchNormalization", "config": {"name": "468", "trainable": true, "dtype": "float32", "axis": 1, "momentum": 0.8999999761581421, "epsilon": 9.999999747378752e-06, "center": true, "scale": true, "beta_initializer": {"class_name": "Zeros", "config": {}}, "gamma_initializer": {"class_name": "Ones", "config": {}}, "moving_mean_initializer": {"class_name": "Zeros", "config": {}}, "moving_variance_initializer": {"class_name": "Ones", "config": {}}, "beta_regularizer": null, "gamma_regularizer": null, "beta_constraint": null, "gamma_constraint": null}, "inbound_nodes": [[["467", 0, 0, {}]]]}, {"name": "469", "class_name": "ReLU", "config": {"name": "469", "trainable": true, "dtype": "float32", "max_value": 6.0, "negative_slope": 0.0, "threshold": 0.0}, "inbound_nodes": [[["468", 0, 0, {}]]]}, {"name": "470_pad", "class_name": "ZeroPadding2D", "config": {"name": "470_pad", "trainable": true, "dtype": "float32", "padding": [[1, 1], [1, 1]], "data_format": "channels_first"}, "inbound_nodes": [[["469", 0, 0, {}]]]}, {"name": "470", "class_name": "DepthwiseConv2D", "config": {"name": "470", "trainable": true, "dtype": "float32", "kernel_size": [3, 3], "strides": [1, 1], "padding": "valid", "data_format": "channels_first", "dilation_rate": [1, 1], "activation": "linear", "use_bias": false, "bias_initializer": {"class_name": "Zeros", "config": {}}, "bias_regularizer": null, "activity_regularizer": null, "bias_constraint": null, "depth_multiplier": 1, "depthwise_initializer": {"class_name": "VarianceScaling", "config": {"scale": 1.0, "mode": "fan_avg", "distribution": "uniform", "seed": null}}, "depthwise_regularizer": null, "depthwise_constraint": null}, "inbound_nodes": [[["470_pad", 0, 0, {}]]]}, {"name": "471", "class_name": "BatchNormalization", "config": {"name": "471", "trainable": true, "dtype": "float32", "axis": 1, "momentum": 0.8999999761581421, "epsilon": 9.999999747378752e-06, "center": true, "scale": true, "beta_initializer": {"class_name": "Zeros", "config": {}}, "gamma_initializer": {"class_name": "Ones", "config": {}}, "moving_mean_initializer": {"class_name": "Zeros", "config": {}}, "moving_variance_initializer": {"class_name": "Ones", "config": {}}, "beta_regularizer": null, "gamma_regularizer": null, "beta_constraint": null, "gamma_constraint": null}, "inbound_nodes": [[["470", 0, 0, {}]]]}, {"name": "472", "class_name": "ReLU", "config": {"name": "472", "trainable": true, "dtype": "float32", "max_value": 6.0, "negative_slope": 0.0, "threshold": 0.0}, "inbound_nodes": [[["471", 0, 0, {}]]]}, {"name": "473", "class_name": "Conv2D", "config": {"name": "473", "trainable": true, "dtype": "float32", "filters": 64, "kernel_size": [1, 1], "strides": [1, 1], "padding": "valid", "data_format": "channels_first", "dilation_rate": [1, 1], "activation": "linear", "use_bias": false, "kernel_initializer": {"class_name": "Zeros", "config": {}}, "bias_initializer": {"class_name": "Zeros", "config": {}}, "kernel_regularizer": null, "bias_regularizer": null, "activity_regularizer": null, "kernel_constraint": null, "bias_constraint": null}, "inbound_nodes": [[["472", 0, 0, {}]]]}, {"name": "474", "class_name": "BatchNormalization", "config": {"name": "474", "trainable": true, "dtype": "float32", "axis": 1, "momentum": 0.8999999761581421, "epsilon": 9.999999747378752e-06, "center": true, "scale": true, "beta_initializer": {"class_name": "Zeros", "config": {}}, "gamma_initializer": {"class_name": "Ones", "config": {}}, "moving_mean_initializer": {"class_name": "Zeros", "config": {}}, "moving_variance_initializer": {"class_name": "Ones", "config": {}}, "beta_regularizer": null, "gamma_regularizer": null, "beta_constraint": null, "gamma_constraint": null}, "inbound_nodes": [[["473", 0, 0, {}]]]}, {"name": "475", "class_name": "Add", "config": {"name": "475", "trainable": true, "dtype": "float32"}, "inbound_nodes": [[["466", 0, 0, {}], ["474", 0, 0, {}]]]}, {"name": "476", "class_name": "Conv2D", "config": {"name": "476", "trainable": true, "dtype": "float32", "filters": 384, "kernel_size": [1, 1], "strides": [1, 1], "padding": "valid", "data_format": "channels_first", "dilation_rate": [1, 1], "activation": "linear", "use_bias": false, "kernel_initializer": {"class_name": "Zeros", "config": {}}, "bias_initializer": {"class_name": "Zeros", "config": {}}, "kernel_regularizer": null, "bias_regularizer": null, "activity_regularizer": null, "kernel_constraint": null, "bias_constraint": null}, "inbound_nodes": [[["475", 0, 0, {}]]]}, {"name": "477", "class_name": "BatchNormalization", "config": {"name": "477", "trainable": true, "dtype": "float32", "axis": 1, "momentum": 0.8999999761581421, "epsilon": 9.999999747378752e-06, "center": true, "scale": true, "beta_initializer": {"class_name": "Zeros", "config": {}}, "gamma_initializer": {"class_name": "Ones", "config": {}}, "moving_mean_initializer": {"class_name": "Zeros", "config": {}}, "moving_variance_initializer": {"class_name": "Ones", "config": {}}, "beta_regularizer": null, "gamma_regularizer": null, "beta_constraint": null, "gamma_constraint": null}, "inbound_nodes": [[["476", 0, 0, {}]]]}, {"name": "478", "class_name": "ReLU", "config": {"name": "478", "trainable": true, "dtype": "float32", "max_value": 6.0, "negative_slope": 0.0, "threshold": 0.0}, "inbound_nodes": [[["477", 0, 0, {}]]]}, {"name": "479_pad", "class_name": "ZeroPadding2D", "config": {"name": "479_pad", "trainable": true, "dtype": "float32", "padding": [[1, 1], [1, 1]], "data_format": "channels_first"}, "inbound_nodes": [[["478", 0, 0, {}]]]}, {"name": "479", "class_name": "DepthwiseConv2D", "config": {"name": "479", "trainable": true, "dtype": "float32", "kernel_size": [3, 3], "strides": [1, 1], "padding": "valid", "data_format": "channels_first", "dilation_rate": [1, 1], "activation": "linear", "use_bias": false, "bias_initializer": {"class_name": "Zeros", "config": {}}, "bias_regularizer": null, "activity_regularizer": null, "bias_constraint": null, "depth_multiplier": 1, "depthwise_initializer": {"class_name": "VarianceScaling", "config": {"scale": 1.0, "mode": "fan_avg", "distribution": "uniform", "seed": null}}, "depthwise_regularizer": null, "depthwise_constraint": null}, "inbound_nodes": [[["479_pad", 0, 0, {}]]]}, {"name": "480", "class_name": "BatchNormalization", "config": {"name": "480", "trainable": true, "dtype": "float32", "axis": 1, "momentum": 0.8999999761581421, "epsilon": 9.999999747378752e-06, "center": true, "scale": true, "beta_initializer": {"class_name": "Zeros", "config": {}}, "gamma_initializer": {"class_name": "Ones", "config": {}}, "moving_mean_initializer": {"class_name": "Zeros", "config": {}}, "moving_variance_initializer": {"class_name": "Ones", "config": {}}, "beta_regularizer": null, "gamma_regularizer": null, "beta_constraint": null, "gamma_constraint": null}, "inbound_nodes": [[["479", 0, 0, {}]]]}, {"name": "481", "class_name": "ReLU", "config": {"name": "481", "trainable": true, "dtype": "float32", "max_value": 6.0, "negative_slope": 0.0, "threshold": 0.0}, "inbound_nodes": [[["480", 0, 0, {}]]]}, {"name": "482", "class_name": "Conv2D", "config": {"name": "482", "trainable": true, "dtype": "float32", "filters": 64, "kernel_size": [1, 1], "strides": [1, 1], "padding": "valid", "data_format": "channels_first", "dilation_rate": [1, 1], "activation": "linear", "use_bias": false, "kernel_initializer": {"class_name": "Zeros", "config": {}}, "bias_initializer": {"class_name": "Zeros", "config": {}}, "kernel_regularizer": null, "bias_regularizer": null, "activity_regularizer": null, "kernel_constraint": null, "bias_constraint": null}, "inbound_nodes": [[["481", 0, 0, {}]]]}, {"name": "483", "class_name": "BatchNormalization", "config": {"name": "483", "trainable": true, "dtype": "float32", "axis": 1, "momentum": 0.8999999761581421, "epsilon": 9.999999747378752e-06, "center": true, "scale": true, "beta_initializer": {"class_name": "Zeros", "config": {}}, "gamma_initializer": {"class_name": "Ones", "config": {}}, "moving_mean_initializer": {"class_name": "Zeros", "config": {}}, "moving_variance_initializer": {"class_name": "Ones", "config": {}}, "beta_regularizer": null, "gamma_regularizer": null, "beta_constraint": null, "gamma_constraint": null}, "inbound_nodes": [[["482", 0, 0, {}]]]}, {"name": "484", "class_name": "Add", "config": {"name": "484", "trainable": true, "dtype": "float32"}, "inbound_nodes": [[["475", 0, 0, {}], ["483", 0, 0, {}]]]}, {"name": "485", "class_name": "Conv2D", "config": {"name": "485", "trainable": true, "dtype": "float32", "filters": 384, "kernel_size": [1, 1], "strides": [1, 1], "padding": "valid", "data_format": "channels_first", "dilation_rate": [1, 1], "activation": "linear", "use_bias": false, "kernel_initializer": {"class_name": "Zeros", "config": {}}, "bias_initializer": {"class_name": "Zeros", "config": {}}, "kernel_regularizer": null, "bias_regularizer": null, "activity_regularizer": null, "kernel_constraint": null, "bias_constraint": null}, "inbound_nodes": [[["484", 0, 0, {}]]]}, {"name": "486", "class_name": "BatchNormalization", "config": {"name": "486", "trainable": true, "dtype": "float32", "axis": 1, "momentum": 0.8999999761581421, "epsilon": 9.999999747378752e-06, "center": true, "scale": true, "beta_initializer": {"class_name": "Zeros", "config": {}}, "gamma_initializer": {"class_name": "Ones", "config": {}}, "moving_mean_initializer": {"class_name": "Zeros", "config": {}}, "moving_variance_initializer": {"class_name": "Ones", "config": {}}, "beta_regularizer": null, "gamma_regularizer": null, "beta_constraint": null, "gamma_constraint": null}, "inbound_nodes": [[["485", 0, 0, {}]]]}, {"name": "487", "class_name": "ReLU", "config": {"name": "487", "trainable": true, "dtype": "float32", "max_value": 6.0, "negative_slope": 0.0, "threshold": 0.0}, "inbound_nodes": [[["486", 0, 0, {}]]]}, {"name": "488_pad", "class_name": "ZeroPadding2D", "config": {"name": "488_pad", "trainable": true, "dtype": "float32", "padding": [[1, 1], [1, 1]], "data_format": "channels_first"}, "inbound_nodes": [[["487", 0, 0, {}]]]}, {"name": "488", "class_name": "DepthwiseConv2D", "config": {"name": "488", "trainable": true, "dtype": "float32", "kernel_size": [3, 3], "strides": [1, 1], "padding": "valid", "data_format": "channels_first", "dilation_rate": [1, 1], "activation": "linear", "use_bias": false, "bias_initializer": {"class_name": "Zeros", "config": {}}, "bias_regularizer": null, "activity_regularizer": null, "bias_constraint": null, "depth_multiplier": 1, "depthwise_initializer": {"class_name": "VarianceScaling", "config": {"scale": 1.0, "mode": "fan_avg", "distribution": "uniform", "seed": null}}, "depthwise_regularizer": null, "depthwise_constraint": null}, "inbound_nodes": [[["488_pad", 0, 0, {}]]]}, {"name": "489", "class_name": "BatchNormalization", "config": {"name": "489", "trainable": true, "dtype": "float32", "axis": 1, "momentum": 0.8999999761581421, "epsilon": 9.999999747378752e-06, "center": true, "scale": true, "beta_initializer": {"class_name": "Zeros", "config": {}}, "gamma_initializer": {"class_name": "Ones", "config": {}}, "moving_mean_initializer": {"class_name": "Zeros", "config": {}}, "moving_variance_initializer": {"class_name": "Ones", "config": {}}, "beta_regularizer": null, "gamma_regularizer": null, "beta_constraint": null, "gamma_constraint": null}, "inbound_nodes": [[["488", 0, 0, {}]]]}, {"name": "490", "class_name": "ReLU", "config": {"name": "490", "trainable": true, "dtype": "float32", "max_value": 6.0, "negative_slope": 0.0, "threshold": 0.0}, "inbound_nodes": [[["489", 0, 0, {}]]]}, {"name": "491", "class_name": "Conv2D", "config": {"name": "491", "trainable": true, "dtype": "float32", "filters": 96, "kernel_size": [1, 1], "strides": [1, 1], "padding": "valid", "data_format": "channels_first", "dilation_rate": [1, 1], "activation": "linear", "use_bias": false, "kernel_initializer": {"class_name": "Zeros", "config": {}}, "bias_initializer": {"class_name": "Zeros", "config": {}}, "kernel_regularizer": null, "bias_regularizer": null, "activity_regularizer": null, "kernel_constraint": null, "bias_constraint": null}, "inbound_nodes": [[["490", 0, 0, {}]]]}, {"name": "492", "class_name": "BatchNormalization", "config": {"name": "492", "trainable": true, "dtype": "float32", "axis": 1, "momentum": 0.8999999761581421, "epsilon": 9.999999747378752e-06, "center": true, "scale": true, "beta_initializer": {"class_name": "Zeros", "config": {}}, "gamma_initializer": {"class_name": "Ones", "config": {}}, "moving_mean_initializer": {"class_name": "Zeros", "config": {}}, "moving_variance_initializer": {"class_name": "Ones", "config": {}}, "beta_regularizer": null, "gamma_regularizer": null, "beta_constraint": null, "gamma_constraint": null}, "inbound_nodes": [[["491", 0, 0, {}]]]}, {"name": "493", "class_name": "Conv2D", "config": {"name": "493", "trainable": true, "dtype": "float32", "filters": 576, "kernel_size": [1, 1], "strides": [1, 1], "padding": "valid", "data_format": "channels_first", "dilation_rate": [1, 1], "activation": "linear", "use_bias": false, "kernel_initializer": {"class_name": "Zeros", "config": {}}, "bias_initializer": {"class_name": "Zeros", "config": {}}, "kernel_regularizer": null, "bias_regularizer": null, "activity_regularizer": null, "kernel_constraint": null, "bias_constraint": null}, "inbound_nodes": [[["492", 0, 0, {}]]]}, {"name": "494", "class_name": "BatchNormalization", "config": {"name": "494", "trainable": true, "dtype": "float32", "axis": 1, "momentum": 0.8999999761581421, "epsilon": 9.999999747378752e-06, "center": true, "scale": true, "beta_initializer": {"class_name": "Zeros", "config": {}}, "gamma_initializer": {"class_name": "Ones", "config": {}}, "moving_mean_initializer": {"class_name": "Zeros", "config": {}}, "moving_variance_initializer": {"class_name": "Ones", "config": {}}, "beta_regularizer": null, "gamma_regularizer": null, "beta_constraint": null, "gamma_constraint": null}, "inbound_nodes": [[["493", 0, 0, {}]]]}, {"name": "495", "class_name": "ReLU", "config": {"name": "495", "trainable": true, "dtype": "float32", "max_value": 6.0, "negative_slope": 0.0, "threshold": 0.0}, "inbound_nodes": [[["494", 0, 0, {}]]]}, {"name": "496_pad", "class_name": "ZeroPadding2D", "config": {"name": "496_pad", "trainable": true, "dtype": "float32", "padding": [[1, 1], [1, 1]], "data_format": "channels_first"}, "inbound_nodes": [[["495", 0, 0, {}]]]}, {"name": "496", "class_name": "DepthwiseConv2D", "config": {"name": "496", "trainable": true, "dtype": "float32", "kernel_size": [3, 3], "strides": [1, 1], "padding": "valid", "data_format": "channels_first", "dilation_rate": [1, 1], "activation": "linear", "use_bias": false, "bias_initializer": {"class_name": "Zeros", "config": {}}, "bias_regularizer": null, "activity_regularizer": null, "bias_constraint": null, "depth_multiplier": 1, "depthwise_initializer": {"class_name": "VarianceScaling", "config": {"scale": 1.0, "mode": "fan_avg", "distribution": "uniform", "seed": null}}, "depthwise_regularizer": null, "depthwise_constraint": null}, "inbound_nodes": [[["496_pad", 0, 0, {}]]]}, {"name": "497", "class_name": "BatchNormalization", "config": {"name": "497", "trainable": true, "dtype": "float32", "axis": 1, "momentum": 0.8999999761581421, "epsilon": 9.999999747378752e-06, "center": true, "scale": true, "beta_initializer": {"class_name": "Zeros", "config": {}}, "gamma_initializer": {"class_name": "Ones", "config": {}}, "moving_mean_initializer": {"class_name": "Zeros", "config": {}}, "moving_variance_initializer": {"class_name": "Ones", "config": {}}, "beta_regularizer": null, "gamma_regularizer": null, "beta_constraint": null, "gamma_constraint": null}, "inbound_nodes": [[["496", 0, 0, {}]]]}, {"name": "498", "class_name": "ReLU", "config": {"name": "498", "trainable": true, "dtype": "float32", "max_value": 6.0, "negative_slope": 0.0, "threshold": 0.0}, "inbound_nodes": [[["497", 0, 0, {}]]]}, {"name": "499", "class_name": "Conv2D", "config": {"name": "499", "trainable": true, "dtype": "float32", "filters": 96, "kernel_size": [1, 1], "strides": [1, 1], "padding": "valid", "data_format": "channels_first", "dilation_rate": [1, 1], "activation": "linear", "use_bias": false, "kernel_initializer": {"class_name": "Zeros", "config": {}}, "bias_initializer": {"class_name": "Zeros", "config": {}}, "kernel_regularizer": null, "bias_regularizer": null, "activity_regularizer": null, "kernel_constraint": null, "bias_constraint": null}, "inbound_nodes": [[["498", 0, 0, {}]]]}, {"name": "500", "class_name": "BatchNormalization", "config": {"name": "500", "trainable": true, "dtype": "float32", "axis": 1, "momentum": 0.8999999761581421, "epsilon": 9.999999747378752e-06, "center": true, "scale": true, "beta_initializer": {"class_name": "Zeros", "config": {}}, "gamma_initializer": {"class_name": "Ones", "config": {}}, "moving_mean_initializer": {"class_name": "Zeros", "config": {}}, "moving_variance_initializer": {"class_name": "Ones", "config": {}}, "beta_regularizer": null, "gamma_regularizer": null, "beta_constraint": null, "gamma_constraint": null}, "inbound_nodes": [[["499", 0, 0, {}]]]}, {"name": "501", "class_name": "Add", "config": {"name": "501", "trainable": true, "dtype": "float32"}, "inbound_nodes": [[["492", 0, 0, {}], ["500", 0, 0, {}]]]}, {"name": "502", "class_name": "Conv2D", "config": {"name": "502", "trainable": true, "dtype": "float32", "filters": 576, "kernel_size": [1, 1], "strides": [1, 1], "padding": "valid", "data_format": "channels_first", "dilation_rate": [1, 1], "activation": "linear", "use_bias": false, "kernel_initializer": {"class_name": "Zeros", "config": {}}, "bias_initializer": {"class_name": "Zeros", "config": {}}, "kernel_regularizer": null, "bias_regularizer": null, "activity_regularizer": null, "kernel_constraint": null, "bias_constraint": null}, "inbound_nodes": [[["501", 0, 0, {}]]]}, {"name": "503", "class_name": "BatchNormalization", "config": {"name": "503", "trainable": true, "dtype": "float32", "axis": 1, "momentum": 0.8999999761581421, "epsilon": 9.999999747378752e-06, "center": true, "scale": true, "beta_initializer": {"class_name": "Zeros", "config": {}}, "gamma_initializer": {"class_name": "Ones", "config": {}}, "moving_mean_initializer": {"class_name": "Zeros", "config": {}}, "moving_variance_initializer": {"class_name": "Ones", "config": {}}, "beta_regularizer": null, "gamma_regularizer": null, "beta_constraint": null, "gamma_constraint": null}, "inbound_nodes": [[["502", 0, 0, {}]]]}, {"name": "504", "class_name": "ReLU", "config": {"name": "504", "trainable": true, "dtype": "float32", "max_value": 6.0, "negative_slope": 0.0, "threshold": 0.0}, "inbound_nodes": [[["503", 0, 0, {}]]]}, {"name": "505_pad", "class_name": "ZeroPadding2D", "config": {"name": "505_pad", "trainable": true, "dtype": "float32", "padding": [[1, 1], [1, 1]], "data_format": "channels_first"}, "inbound_nodes": [[["504", 0, 0, {}]]]}, {"name": "505", "class_name": "DepthwiseConv2D", "config": {"name": "505", "trainable": true, "dtype": "float32", "kernel_size": [3, 3], "strides": [1, 1], "padding": "valid", "data_format": "channels_first", "dilation_rate": [1, 1], "activation": "linear", "use_bias": false, "bias_initializer": {"class_name": "Zeros", "config": {}}, "bias_regularizer": null, "activity_regularizer": null, "bias_constraint": null, "depth_multiplier": 1, "depthwise_initializer": {"class_name": "VarianceScaling", "config": {"scale": 1.0, "mode": "fan_avg", "distribution": "uniform", "seed": null}}, "depthwise_regularizer": null, "depthwise_constraint": null}, "inbound_nodes": [[["505_pad", 0, 0, {}]]]}, {"name": "506", "class_name": "BatchNormalization", "config": {"name": "506", "trainable": true, "dtype": "float32", "axis": 1, "momentum": 0.8999999761581421, "epsilon": 9.999999747378752e-06, "center": true, "scale": true, "beta_initializer": {"class_name": "Zeros", "config": {}}, "gamma_initializer": {"class_name": "Ones", "config": {}}, "moving_mean_initializer": {"class_name": "Zeros", "config": {}}, "moving_variance_initializer": {"class_name": "Ones", "config": {}}, "beta_regularizer": null, "gamma_regularizer": null, "beta_constraint": null, "gamma_constraint": null}, "inbound_nodes": [[["505", 0, 0, {}]]]}, {"name": "507", "class_name": "ReLU", "config": {"name": "507", "trainable": true, "dtype": "float32", "max_value": 6.0, "negative_slope": 0.0, "threshold": 0.0}, "inbound_nodes": [[["506", 0, 0, {}]]]}, {"name": "508", "class_name": "Conv2D", "config": {"name": "508", "trainable": true, "dtype": "float32", "filters": 96, "kernel_size": [1, 1], "strides": [1, 1], "padding": "valid", "data_format": "channels_first", "dilation_rate": [1, 1], "activation": "linear", "use_bias": false, "kernel_initializer": {"class_name": "Zeros", "config": {}}, "bias_initializer": {"class_name": "Zeros", "config": {}}, "kernel_regularizer": null, "bias_regularizer": null, "activity_regularizer": null, "kernel_constraint": null, "bias_constraint": null}, "inbound_nodes": [[["507", 0, 0, {}]]]}, {"name": "509", "class_name": "BatchNormalization", "config": {"name": "509", "trainable": true, "dtype": "float32", "axis": 1, "momentum": 0.8999999761581421, "epsilon": 9.999999747378752e-06, "center": true, "scale": true, "beta_initializer": {"class_name": "Zeros", "config": {}}, "gamma_initializer": {"class_name": "Ones", "config": {}}, "moving_mean_initializer": {"class_name": "Zeros", "config": {}}, "moving_variance_initializer": {"class_name": "Ones", "config": {}}, "beta_regularizer": null, "gamma_regularizer": null, "beta_constraint": null, "gamma_constraint": null}, "inbound_nodes": [[["508", 0, 0, {}]]]}, {"name": "510", "class_name": "Add", "config": {"name": "510", "trainable": true, "dtype": "float32"}, "inbound_nodes": [[["501", 0, 0, {}], ["509", 0, 0, {}]]]}, {"name": "511", "class_name": "Conv2D", "config": {"name": "511", "trainable": true, "dtype": "float32", "filters": 576, "kernel_size": [1, 1], "strides": [1, 1], "padding": "valid", "data_format": "channels_first", "dilation_rate": [1, 1], "activation": "linear", "use_bias": false, "kernel_initializer": {"class_name": "Zeros", "config": {}}, "bias_initializer": {"class_name": "Zeros", "config": {}}, "kernel_regularizer": null, "bias_regularizer": null, "activity_regularizer": null, "kernel_constraint": null, "bias_constraint": null}, "inbound_nodes": [[["510", 0, 0, {}]]]}, {"name": "512", "class_name": "BatchNormalization", "config": {"name": "512", "trainable": true, "dtype": "float32", "axis": 1, "momentum": 0.8999999761581421, "epsilon": 9.999999747378752e-06, "center": true, "scale": true, "beta_initializer": {"class_name": "Zeros", "config": {}}, "gamma_initializer": {"class_name": "Ones", "config": {}}, "moving_mean_initializer": {"class_name": "Zeros", "config": {}}, "moving_variance_initializer": {"class_name": "Ones", "config": {}}, "beta_regularizer": null, "gamma_regularizer": null, "beta_constraint": null, "gamma_constraint": null}, "inbound_nodes": [[["511", 0, 0, {}]]]}, {"name": "513", "class_name": "ReLU", "config": {"name": "513", "trainable": true, "dtype": "float32", "max_value": 6.0, "negative_slope": 0.0, "threshold": 0.0}, "inbound_nodes": [[["512", 0, 0, {}]]]}, {"name": "514_pad", "class_name": "ZeroPadding2D", "config": {"name": "514_pad", "trainable": true, "dtype": "float32", "padding": [[1, 1], [1, 1]], "data_format": "channels_first"}, "inbound_nodes": [[["513", 0, 0, {}]]]}, {"name": "514", "class_name": "DepthwiseConv2D", "config": {"name": "514", "trainable": true, "dtype": "float32", "kernel_size": [3, 3], "strides": [2, 2], "padding": "valid", "data_format": "channels_first", "dilation_rate": [1, 1], "activation": "linear", "use_bias": false, "bias_initializer": {"class_name": "Zeros", "config": {}}, "bias_regularizer": null, "activity_regularizer": null, "bias_constraint": null, "depth_multiplier": 1, "depthwise_initializer": {"class_name": "VarianceScaling", "config": {"scale": 1.0, "mode": "fan_avg", "distribution": "uniform", "seed": null}}, "depthwise_regularizer": null, "depthwise_constraint": null}, "inbound_nodes": [[["514_pad", 0, 0, {}]]]}, {"name": "515", "class_name": "BatchNormalization", "config": {"name": "515", "trainable": true, "dtype": "float32", "axis": 1, "momentum": 0.8999999761581421, "epsilon": 9.999999747378752e-06, "center": true, "scale": true, "beta_initializer": {"class_name": "Zeros", "config": {}}, "gamma_initializer": {"class_name": "Ones", "config": {}}, "moving_mean_initializer": {"class_name": "Zeros", "config": {}}, "moving_variance_initializer": {"class_name": "Ones", "config": {}}, "beta_regularizer": null, "gamma_regularizer": null, "beta_constraint": null, "gamma_constraint": null}, "inbound_nodes": [[["514", 0, 0, {}]]]}, {"name": "516", "class_name": "ReLU", "config": {"name": "516", "trainable": true, "dtype": "float32", "max_value": 6.0, "negative_slope": 0.0, "threshold": 0.0}, "inbound_nodes": [[["515", 0, 0, {}]]]}, {"name": "517", "class_name": "Conv2D", "config": {"name": "517", "trainable": true, "dtype": "float32", "filters": 160, "kernel_size": [1, 1], "strides": [1, 1], "padding": "valid", "data_format": "channels_first", "dilation_rate": [1, 1], "activation": "linear", "use_bias": false, "kernel_initializer": {"class_name": "Zeros", "config": {}}, "bias_initializer": {"class_name": "Zeros", "config": {}}, "kernel_regularizer": null, "bias_regularizer": null, "activity_regularizer": null, "kernel_constraint": null, "bias_constraint": null}, "inbound_nodes": [[["516", 0, 0, {}]]]}, {"name": "518", "class_name": "BatchNormalization", "config": {"name": "518", "trainable": true, "dtype": "float32", "axis": 1, "momentum": 0.8999999761581421, "epsilon": 9.999999747378752e-06, "center": true, "scale": true, "beta_initializer": {"class_name": "Zeros", "config": {}}, "gamma_initializer": {"class_name": "Ones", "config": {}}, "moving_mean_initializer": {"class_name": "Zeros", "config": {}}, "moving_variance_initializer": {"class_name": "Ones", "config": {}}, "beta_regularizer": null, "gamma_regularizer": null, "beta_constraint": null, "gamma_constraint": null}, "inbound_nodes": [[["517", 0, 0, {}]]]}, {"name": "519", "class_name": "Conv2D", "config": {"name": "519", "trainable": true, "dtype": "float32", "filters": 960, "kernel_size": [1, 1], "strides": [1, 1], "padding": "valid", "data_format": "channels_first", "dilation_rate": [1, 1], "activation": "linear", "use_bias": false, "kernel_initializer": {"class_name": "Zeros", "config": {}}, "bias_initializer": {"class_name": "Zeros", "config": {}}, "kernel_regularizer": null, "bias_regularizer": null, "activity_regularizer": null, "kernel_constraint": null, "bias_constraint": null}, "inbound_nodes": [[["518", 0, 0, {}]]]}, {"name": "520", "class_name": "BatchNormalization", "config": {"name": "520", "trainable": true, "dtype": "float32", "axis": 1, "momentum": 0.8999999761581421, "epsilon": 9.999999747378752e-06, "center": true, "scale": true, "beta_initializer": {"class_name": "Zeros", "config": {}}, "gamma_initializer": {"class_name": "Ones", "config": {}}, "moving_mean_initializer": {"class_name": "Zeros", "config": {}}, "moving_variance_initializer": {"class_name": "Ones", "config": {}}, "beta_regularizer": null, "gamma_regularizer": null, "beta_constraint": null, "gamma_constraint": null}, "inbound_nodes": [[["519", 0, 0, {}]]]}, {"name": "521", "class_name": "ReLU", "config": {"name": "521", "trainable": true, "dtype": "float32", "max_value": 6.0, "negative_slope": 0.0, "threshold": 0.0}, "inbound_nodes": [[["520", 0, 0, {}]]]}, {"name": "522_pad", "class_name": "ZeroPadding2D", "config": {"name": "522_pad", "trainable": true, "dtype": "float32", "padding": [[1, 1], [1, 1]], "data_format": "channels_first"}, "inbound_nodes": [[["521", 0, 0, {}]]]}, {"name": "522", "class_name": "DepthwiseConv2D", "config": {"name": "522", "trainable": true, "dtype": "float32", "kernel_size": [3, 3], "strides": [1, 1], "padding": "valid", "data_format": "channels_first", "dilation_rate": [1, 1], "activation": "linear", "use_bias": false, "bias_initializer": {"class_name": "Zeros", "config": {}}, "bias_regularizer": null, "activity_regularizer": null, "bias_constraint": null, "depth_multiplier": 1, "depthwise_initializer": {"class_name": "VarianceScaling", "config": {"scale": 1.0, "mode": "fan_avg", "distribution": "uniform", "seed": null}}, "depthwise_regularizer": null, "depthwise_constraint": null}, "inbound_nodes": [[["522_pad", 0, 0, {}]]]}, {"name": "523", "class_name": "BatchNormalization", "config": {"name": "523", "trainable": true, "dtype": "float32", "axis": 1, "momentum": 0.8999999761581421, "epsilon": 9.999999747378752e-06, "center": true, "scale": true, "beta_initializer": {"class_name": "Zeros", "config": {}}, "gamma_initializer": {"class_name": "Ones", "config": {}}, "moving_mean_initializer": {"class_name": "Zeros", "config": {}}, "moving_variance_initializer": {"class_name": "Ones", "config": {}}, "beta_regularizer": null, "gamma_regularizer": null, "beta_constraint": null, "gamma_constraint": null}, "inbound_nodes": [[["522", 0, 0, {}]]]}, {"name": "524", "class_name": "ReLU", "config": {"name": "524", "trainable": true, "dtype": "float32", "max_value": 6.0, "negative_slope": 0.0, "threshold": 0.0}, "inbound_nodes": [[["523", 0, 0, {}]]]}, {"name": "525", "class_name": "Conv2D", "config": {"name": "525", "trainable": true, "dtype": "float32", "filters": 160, "kernel_size": [1, 1], "strides": [1, 1], "padding": "valid", "data_format": "channels_first", "dilation_rate": [1, 1], "activation": "linear", "use_bias": false, "kernel_initializer": {"class_name": "Zeros", "config": {}}, "bias_initializer": {"class_name": "Zeros", "config": {}}, "kernel_regularizer": null, "bias_regularizer": null, "activity_regularizer": null, "kernel_constraint": null, "bias_constraint": null}, "inbound_nodes": [[["524", 0, 0, {}]]]}, {"name": "526", "class_name": "BatchNormalization", "config": {"name": "526", "trainable": true, "dtype": "float32", "axis": 1, "momentum": 0.8999999761581421, "epsilon": 9.999999747378752e-06, "center": true, "scale": true, "beta_initializer": {"class_name": "Zeros", "config": {}}, "gamma_initializer": {"class_name": "Ones", "config": {}}, "moving_mean_initializer": {"class_name": "Zeros", "config": {}}, "moving_variance_initializer": {"class_name": "Ones", "config": {}}, "beta_regularizer": null, "gamma_regularizer": null, "beta_constraint": null, "gamma_constraint": null}, "inbound_nodes": [[["525", 0, 0, {}]]]}, {"name": "527", "class_name": "Add", "config": {"name": "527", "trainable": true, "dtype": "float32"}, "inbound_nodes": [[["518", 0, 0, {}], ["526", 0, 0, {}]]]}, {"name": "528", "class_name": "Conv2D", "config": {"name": "528", "trainable": true, "dtype": "float32", "filters": 960, "kernel_size": [1, 1], "strides": [1, 1], "padding": "valid", "data_format": "channels_first", "dilation_rate": [1, 1], "activation": "linear", "use_bias": false, "kernel_initializer": {"class_name": "Zeros", "config": {}}, "bias_initializer": {"class_name": "Zeros", "config": {}}, "kernel_regularizer": null, "bias_regularizer": null, "activity_regularizer": null, "kernel_constraint": null, "bias_constraint": null}, "inbound_nodes": [[["527", 0, 0, {}]]]}, {"name": "529", "class_name": "BatchNormalization", "config": {"name": "529", "trainable": true, "dtype": "float32", "axis": 1, "momentum": 0.8999999761581421, "epsilon": 9.999999747378752e-06, "center": true, "scale": true, "beta_initializer": {"class_name": "Zeros", "config": {}}, "gamma_initializer": {"class_name": "Ones", "config": {}}, "moving_mean_initializer": {"class_name": "Zeros", "config": {}}, "moving_variance_initializer": {"class_name": "Ones", "config": {}}, "beta_regularizer": null, "gamma_regularizer": null, "beta_constraint": null, "gamma_constraint": null}, "inbound_nodes": [[["528", 0, 0, {}]]]}, {"name": "530", "class_name": "ReLU", "config": {"name": "530", "trainable": true, "dtype": "float32", "max_value": 6.0, "negative_slope": 0.0, "threshold": 0.0}, "inbound_nodes": [[["529", 0, 0, {}]]]}, {"name": "531_pad", "class_name": "ZeroPadding2D", "config": {"name": "531_pad", "trainable": true, "dtype": "float32", "padding": [[1, 1], [1, 1]], "data_format": "channels_first"}, "inbound_nodes": [[["530", 0, 0, {}]]]}, {"name": "531", "class_name": "DepthwiseConv2D", "config": {"name": "531", "trainable": true, "dtype": "float32", "kernel_size": [3, 3], "strides": [1, 1], "padding": "valid", "data_format": "channels_first", "dilation_rate": [1, 1], "activation": "linear", "use_bias": false, "bias_initializer": {"class_name": "Zeros", "config": {}}, "bias_regularizer": null, "activity_regularizer": null, "bias_constraint": null, "depth_multiplier": 1, "depthwise_initializer": {"class_name": "VarianceScaling", "config": {"scale": 1.0, "mode": "fan_avg", "distribution": "uniform", "seed": null}}, "depthwise_regularizer": null, "depthwise_constraint": null}, "inbound_nodes": [[["531_pad", 0, 0, {}]]]}, {"name": "532", "class_name": "BatchNormalization", "config": {"name": "532", "trainable": true, "dtype": "float32", "axis": 1, "momentum": 0.8999999761581421, "epsilon": 9.999999747378752e-06, "center": true, "scale": true, "beta_initializer": {"class_name": "Zeros", "config": {}}, "gamma_initializer": {"class_name": "Ones", "config": {}}, "moving_mean_initializer": {"class_name": "Zeros", "config": {}}, "moving_variance_initializer": {"class_name": "Ones", "config": {}}, "beta_regularizer": null, "gamma_regularizer": null, "beta_constraint": null, "gamma_constraint": null}, "inbound_nodes": [[["531", 0, 0, {}]]]}, {"name": "533", "class_name": "ReLU", "config": {"name": "533", "trainable": true, "dtype": "float32", "max_value": 6.0, "negative_slope": 0.0, "threshold": 0.0}, "inbound_nodes": [[["532", 0, 0, {}]]]}, {"name": "534", "class_name": "Conv2D", "config": {"name": "534", "trainable": true, "dtype": "float32", "filters": 160, "kernel_size": [1, 1], "strides": [1, 1], "padding": "valid", "data_format": "channels_first", "dilation_rate": [1, 1], "activation": "linear", "use_bias": false, "kernel_initializer": {"class_name": "Zeros", "config": {}}, "bias_initializer": {"class_name": "Zeros", "config": {}}, "kernel_regularizer": null, "bias_regularizer": null, "activity_regularizer": null, "kernel_constraint": null, "bias_constraint": null}, "inbound_nodes": [[["533", 0, 0, {}]]]}, {"name": "535", "class_name": "BatchNormalization", "config": {"name": "535", "trainable": true, "dtype": "float32", "axis": 1, "momentum": 0.8999999761581421, "epsilon": 9.999999747378752e-06, "center": true, "scale": true, "beta_initializer": {"class_name": "Zeros", "config": {}}, "gamma_initializer": {"class_name": "Ones", "config": {}}, "moving_mean_initializer": {"class_name": "Zeros", "config": {}}, "moving_variance_initializer": {"class_name": "Ones", "config": {}}, "beta_regularizer": null, "gamma_regularizer": null, "beta_constraint": null, "gamma_constraint": null}, "inbound_nodes": [[["534", 0, 0, {}]]]}, {"name": "536", "class_name": "Add", "config": {"name": "536", "trainable": true, "dtype": "float32"}, "inbound_nodes": [[["527", 0, 0, {}], ["535", 0, 0, {}]]]}, {"name": "537", "class_name": "Conv2D", "config": {"name": "537", "trainable": true, "dtype": "float32", "filters": 960, "kernel_size": [1, 1], "strides": [1, 1], "padding": "valid", "data_format": "channels_first", "dilation_rate": [1, 1], "activation": "linear", "use_bias": false, "kernel_initializer": {"class_name": "Zeros", "config": {}}, "bias_initializer": {"class_name": "Zeros", "config": {}}, "kernel_regularizer": null, "bias_regularizer": null, "activity_regularizer": null, "kernel_constraint": null, "bias_constraint": null}, "inbound_nodes": [[["536", 0, 0, {}]]]}, {"name": "538", "class_name": "BatchNormalization", "config": {"name": "538", "trainable": true, "dtype": "float32", "axis": 1, "momentum": 0.8999999761581421, "epsilon": 9.999999747378752e-06, "center": true, "scale": true, "beta_initializer": {"class_name": "Zeros", "config": {}}, "gamma_initializer": {"class_name": "Ones", "config": {}}, "moving_mean_initializer": {"class_name": "Zeros", "config": {}}, "moving_variance_initializer": {"class_name": "Ones", "config": {}}, "beta_regularizer": null, "gamma_regularizer": null, "beta_constraint": null, "gamma_constraint": null}, "inbound_nodes": [[["537", 0, 0, {}]]]}, {"name": "539", "class_name": "ReLU", "config": {"name": "539", "trainable": true, "dtype": "float32", "max_value": 6.0, "negative_slope": 0.0, "threshold": 0.0}, "inbound_nodes": [[["538", 0, 0, {}]]]}, {"name": "540_pad", "class_name": "ZeroPadding2D", "config": {"name": "540_pad", "trainable": true, "dtype": "float32", "padding": [[1, 1], [1, 1]], "data_format": "channels_first"}, "inbound_nodes": [[["539", 0, 0, {}]]]}, {"name": "540", "class_name": "DepthwiseConv2D", "config": {"name": "540", "trainable": true, "dtype": "float32", "kernel_size": [3, 3], "strides": [1, 1], "padding": "valid", "data_format": "channels_first", "dilation_rate": [1, 1], "activation": "linear", "use_bias": false, "bias_initializer": {"class_name": "Zeros", "config": {}}, "bias_regularizer": null, "activity_regularizer": null, "bias_constraint": null, "depth_multiplier": 1, "depthwise_initializer": {"class_name": "VarianceScaling", "config": {"scale": 1.0, "mode": "fan_avg", "distribution": "uniform", "seed": null}}, "depthwise_regularizer": null, "depthwise_constraint": null}, "inbound_nodes": [[["540_pad", 0, 0, {}]]]}, {"name": "541", "class_name": "BatchNormalization", "config": {"name": "541", "trainable": true, "dtype": "float32", "axis": 1, "momentum": 0.8999999761581421, "epsilon": 9.999999747378752e-06, "center": true, "scale": true, "beta_initializer": {"class_name": "Zeros", "config": {}}, "gamma_initializer": {"class_name": "Ones", "config": {}}, "moving_mean_initializer": {"class_name": "Zeros", "config": {}}, "moving_variance_initializer": {"class_name": "Ones", "config": {}}, "beta_regularizer": null, "gamma_regularizer": null, "beta_constraint": null, "gamma_constraint": null}, "inbound_nodes": [[["540", 0, 0, {}]]]}, {"name": "542", "class_name": "ReLU", "config": {"name": "542", "trainable": true, "dtype": "float32", "max_value": 6.0, "negative_slope": 0.0, "threshold": 0.0}, "inbound_nodes": [[["541", 0, 0, {}]]]}, {"name": "543", "class_name": "Conv2D", "config": {"name": "543", "trainable": true, "dtype": "float32", "filters": 320, "kernel_size": [1, 1], "strides": [1, 1], "padding": "valid", "data_format": "channels_first", "dilation_rate": [1, 1], "activation": "linear", "use_bias": false, "kernel_initializer": {"class_name": "Zeros", "config": {}}, "bias_initializer": {"class_name": "Zeros", "config": {}}, "kernel_regularizer": null, "bias_regularizer": null, "activity_regularizer": null, "kernel_constraint": null, "bias_constraint": null}, "inbound_nodes": [[["542", 0, 0, {}]]]}, {"name": "544", "class_name": "BatchNormalization", "config": {"name": "544", "trainable": true, "dtype": "float32", "axis": 1, "momentum": 0.8999999761581421, "epsilon": 9.999999747378752e-06, "center": true, "scale": true, "beta_initializer": {"class_name": "Zeros", "config": {}}, "gamma_initializer": {"class_name": "Ones", "config": {}}, "moving_mean_initializer": {"class_name": "Zeros", "config": {}}, "moving_variance_initializer": {"class_name": "Ones", "config": {}}, "beta_regularizer": null, "gamma_regularizer": null, "beta_constraint": null, "gamma_constraint": null}, "inbound_nodes": [[["543", 0, 0, {}]]]}, {"name": "545", "class_name": "Conv2D", "config": {"name": "545", "trainable": true, "dtype": "float32", "filters": 1280, "kernel_size": [1, 1], "strides": [1, 1], "padding": "valid", "data_format": "channels_first", "dilation_rate": [1, 1], "activation": "linear", "use_bias": false, "kernel_initializer": {"class_name": "Zeros", "config": {}}, "bias_initializer": {"class_name": "Zeros", "config": {}}, "kernel_regularizer": null, "bias_regularizer": null, "activity_regularizer": null, "kernel_constraint": null, "bias_constraint": null}, "inbound_nodes": [[["544", 0, 0, {}]]]}, {"name": "546", "class_name": "BatchNormalization", "config": {"name": "546", "trainable": true, "dtype": "float32", "axis": 1, "momentum": 0.8999999761581421, "epsilon": 9.999999747378752e-06, "center": true, "scale": true, "beta_initializer": {"class_name": "Zeros", "config": {}}, "gamma_initializer": {"class_name": "Ones", "config": {}}, "moving_mean_initializer": {"class_name": "Zeros", "config": {}}, "moving_variance_initializer": {"class_name": "Ones", "config": {}}, "beta_regularizer": null, "gamma_regularizer": null, "beta_constraint": null, "gamma_constraint": null}, "inbound_nodes": [[["545", 0, 0, {}]]]}, {"name": "547", "class_name": "ReLU", "config": {"name": "547", "trainable": true, "dtype": "float32", "max_value": 6.0, "negative_slope": 0.0, "threshold": 0.0}, "inbound_nodes": [[["546", 0, 0, {}]]]}, {"name": "548", "class_name": "Conv2DTranspose", "config": {"name": "548", "trainable": true, "dtype": "float32", "filters": 96, "kernel_size": [4, 4], "strides": [2, 2], "padding": "valid", "data_format": "channels_first", "dilation_rate": [1, 1], "activation": "linear", "use_bias": true, "kernel_initializer": {"class_name": "Zeros", "config": {}}, "bias_initializer": {"class_name": "Zeros", "config": {}}, "kernel_regularizer": null, "bias_regularizer": null, "activity_regularizer": null, "kernel_constraint": null, "bias_constraint": null, "output_padding": [0, 0]}, "inbound_nodes": [[["547", 0, 0, {}]]]}, {"name": "548_crop", "class_name": "Cropping2D", "config": {"name": "548_crop", "trainable": true, "dtype": "float32", "cropping": [[1, 1], [1, 1]], "data_format": "channels_first"}, "inbound_nodes": [[["548", 0, 0, {}]]]}, {"name": "549", "class_name": "Concatenate", "config": {"name": "549", "trainable": true, "dtype": "float32", "axis": 1}, "inbound_nodes": [[["510", 0, 0, {}], ["548_crop", 0, 0, {}]]]}, {"name": "550", "class_name": "Conv2D", "config": {"name": "550", "trainable": true, "dtype": "float32", "filters": 1152, "kernel_size": [1, 1], "strides": [1, 1], "padding": "valid", "data_format": "channels_first", "dilation_rate": [1, 1], "activation": "linear", "use_bias": false, "kernel_initializer": {"class_name": "Zeros", "config": {}}, "bias_initializer": {"class_name": "Zeros", "config": {}}, "kernel_regularizer": null, "bias_regularizer": null, "activity_regularizer": null, "kernel_constraint": null, "bias_constraint": null}, "inbound_nodes": [[["549", 0, 0, {}]]]}, {"name": "551", "class_name": "BatchNormalization", "config": {"name": "551", "trainable": true, "dtype": "float32", "axis": 1, "momentum": 0.8999999761581421, "epsilon": 9.999999747378752e-06, "center": true, "scale": true, "beta_initializer": {"class_name": "Zeros", "config": {}}, "gamma_initializer": {"class_name": "Ones", "config": {}}, "moving_mean_initializer": {"class_name": "Zeros", "config": {}}, "moving_variance_initializer": {"class_name": "Ones", "config": {}}, "beta_regularizer": null, "gamma_regularizer": null, "beta_constraint": null, "gamma_constraint": null}, "inbound_nodes": [[["550", 0, 0, {}]]]}, {"name": "552", "class_name": "ReLU", "config": {"name": "552", "trainable": true, "dtype": "float32", "max_value": 6.0, "negative_slope": 0.0, "threshold": 0.0}, "inbound_nodes": [[["551", 0, 0, {}]]]}, {"name": "553_pad", "class_name": "ZeroPadding2D", "config": {"name": "553_pad", "trainable": true, "dtype": "float32", "padding": [[1, 1], [1, 1]], "data_format": "channels_first"}, "inbound_nodes": [[["552", 0, 0, {}]]]}, {"name": "553", "class_name": "DepthwiseConv2D", "config": {"name": "553", "trainable": true, "dtype": "float32", "kernel_size": [3, 3], "strides": [1, 1], "padding": "valid", "data_format": "channels_first", "dilation_rate": [1, 1], "activation": "linear", "use_bias": false, "bias_initializer": {"class_name": "Zeros", "config": {}}, "bias_regularizer": null, "activity_regularizer": null, "bias_constraint": null, "depth_multiplier": 1, "depthwise_initializer": {"class_name": "VarianceScaling", "config": {"scale": 1.0, "mode": "fan_avg", "distribution": "uniform", "seed": null}}, "depthwise_regularizer": null, "depthwise_constraint": null}, "inbound_nodes": [[["553_pad", 0, 0, {}]]]}, {"name": "554", "class_name": "BatchNormalization", "config": {"name": "554", "trainable": true, "dtype": "float32", "axis": 1, "momentum": 0.8999999761581421, "epsilon": 9.999999747378752e-06, "center": true, "scale": true, "beta_initializer": {"class_name": "Zeros", "config": {}}, "gamma_initializer": {"class_name": "Ones", "config": {}}, "moving_mean_initializer": {"class_name": "Zeros", "config": {}}, "moving_variance_initializer": {"class_name": "Ones", "config": {}}, "beta_regularizer": null, "gamma_regularizer": null, "beta_constraint": null, "gamma_constraint": null}, "inbound_nodes": [[["553", 0, 0, {}]]]}, {"name": "555", "class_name": "ReLU", "config": {"name": "555", "trainable": true, "dtype": "float32", "max_value": 6.0, "negative_slope": 0.0, "threshold": 0.0}, "inbound_nodes": [[["554", 0, 0, {}]]]}, {"name": "556", "class_name": "Conv2D", "config": {"name": "556", "trainable": true, "dtype": "float32", "filters": 96, "kernel_size": [1, 1], "strides": [1, 1], "padding": "valid", "data_format": "channels_first", "dilation_rate": [1, 1], "activation": "linear", "use_bias": false, "kernel_initializer": {"class_name": "Zeros", "config": {}}, "bias_initializer": {"class_name": "Zeros", "config": {}}, "kernel_regularizer": null, "bias_regularizer": null, "activity_regularizer": null, "kernel_constraint": null, "bias_constraint": null}, "inbound_nodes": [[["555", 0, 0, {}]]]}, {"name": "557", "class_name": "BatchNormalization", "config": {"name": "557", "trainable": true, "dtype": "float32", "axis": 1, "momentum": 0.8999999761581421, "epsilon": 9.999999747378752e-06, "center": true, "scale": true, "beta_initializer": {"class_name": "Zeros", "config": {}}, "gamma_initializer": {"class_name": "Ones", "config": {}}, "moving_mean_initializer": {"class_name": "Zeros", "config": {}}, "moving_variance_initializer": {"class_name": "Ones", "config": {}}, "beta_regularizer": null, "gamma_regularizer": null, "beta_constraint": null, "gamma_constraint": null}, "inbound_nodes": [[["556", 0, 0, {}]]]}, {"name": "558", "class_name": "Conv2DTranspose", "config": {"name": "558", "trainable": true, "dtype": "float32", "filters": 32, "kernel_size": [4, 4], "strides": [2, 2], "padding": "valid", "data_format": "channels_first", "dilation_rate": [1, 1], "activation": "linear", "use_bias": true, "kernel_initializer": {"class_name": "Zeros", "config": {}}, "bias_initializer": {"class_name": "Zeros", "config": {}}, "kernel_regularizer": null, "bias_regularizer": null, "activity_regularizer": null, "kernel_constraint": null, "bias_constraint": null, "output_padding": [0, 0]}, "inbound_nodes": [[["557", 0, 0, {}]]]}, {"name": "558_crop", "class_name": "Cropping2D", "config": {"name": "558_crop", "trainable": true, "dtype": "float32", "cropping": [[1, 1], [1, 1]], "data_format": "channels_first"}, "inbound_nodes": [[["558", 0, 0, {}]]]}, {"name": "559", "class_name": "Concatenate", "config": {"name": "559", "trainable": true, "dtype": "float32", "axis": 1}, "inbound_nodes": [[["449", 0, 0, {}], ["558_crop", 0, 0, {}]]]}, {"name": "560", "class_name": "Conv2D", "config": {"name": "560", "trainable": true, "dtype": "float32", "filters": 384, "kernel_size": [1, 1], "strides": [1, 1], "padding": "valid", "data_format": "channels_first", "dilation_rate": [1, 1], "activation": "linear", "use_bias": false, "kernel_initializer": {"class_name": "Zeros", "config": {}}, "bias_initializer": {"class_name": "Zeros", "config": {}}, "kernel_regularizer": null, "bias_regularizer": null, "activity_regularizer": null, "kernel_constraint": null, "bias_constraint": null}, "inbound_nodes": [[["559", 0, 0, {}]]]}, {"name": "561", "class_name": "BatchNormalization", "config": {"name": "561", "trainable": true, "dtype": "float32", "axis": 1, "momentum": 0.8999999761581421, "epsilon": 9.999999747378752e-06, "center": true, "scale": true, "beta_initializer": {"class_name": "Zeros", "config": {}}, "gamma_initializer": {"class_name": "Ones", "config": {}}, "moving_mean_initializer": {"class_name": "Zeros", "config": {}}, "moving_variance_initializer": {"class_name": "Ones", "config": {}}, "beta_regularizer": null, "gamma_regularizer": null, "beta_constraint": null, "gamma_constraint": null}, "inbound_nodes": [[["560", 0, 0, {}]]]}, {"name": "562", "class_name": "ReLU", "config": {"name": "562", "trainable": true, "dtype": "float32", "max_value": 6.0, "negative_slope": 0.0, "threshold": 0.0}, "inbound_nodes": [[["561", 0, 0, {}]]]}, {"name": "563_pad", "class_name": "ZeroPadding2D", "config": {"name": "563_pad", "trainable": true, "dtype": "float32", "padding": [[1, 1], [1, 1]], "data_format": "channels_first"}, "inbound_nodes": [[["562", 0, 0, {}]]]}, {"name": "563", "class_name": "DepthwiseConv2D", "config": {"name": "563", "trainable": true, "dtype": "float32", "kernel_size": [3, 3], "strides": [1, 1], "padding": "valid", "data_format": "channels_first", "dilation_rate": [1, 1], "activation": "linear", "use_bias": false, "bias_initializer": {"class_name": "Zeros", "config": {}}, "bias_regularizer": null, "activity_regularizer": null, "bias_constraint": null, "depth_multiplier": 1, "depthwise_initializer": {"class_name": "VarianceScaling", "config": {"scale": 1.0, "mode": "fan_avg", "distribution": "uniform", "seed": null}}, "depthwise_regularizer": null, "depthwise_constraint": null}, "inbound_nodes": [[["563_pad", 0, 0, {}]]]}, {"name": "564", "class_name": "BatchNormalization", "config": {"name": "564", "trainable": true, "dtype": "float32", "axis": 1, "momentum": 0.8999999761581421, "epsilon": 9.999999747378752e-06, "center": true, "scale": true, "beta_initializer": {"class_name": "Zeros", "config": {}}, "gamma_initializer": {"class_name": "Ones", "config": {}}, "moving_mean_initializer": {"class_name": "Zeros", "config": {}}, "moving_variance_initializer": {"class_name": "Ones", "config": {}}, "beta_regularizer": null, "gamma_regularizer": null, "beta_constraint": null, "gamma_constraint": null}, "inbound_nodes": [[["563", 0, 0, {}]]]}, {"name": "565", "class_name": "ReLU", "config": {"name": "565", "trainable": true, "dtype": "float32", "max_value": 6.0, "negative_slope": 0.0, "threshold": 0.0}, "inbound_nodes": [[["564", 0, 0, {}]]]}, {"name": "566", "class_name": "Conv2D", "config": {"name": "566", "trainable": true, "dtype": "float32", "filters": 32, "kernel_size": [1, 1], "strides": [1, 1], "padding": "valid", "data_format": "channels_first", "dilation_rate": [1, 1], "activation": "linear", "use_bias": false, "kernel_initializer": {"class_name": "Zeros", "config": {}}, "bias_initializer": {"class_name": "Zeros", "config": {}}, "kernel_regularizer": null, "bias_regularizer": null, "activity_regularizer": null, "kernel_constraint": null, "bias_constraint": null}, "inbound_nodes": [[["565", 0, 0, {}]]]}, {"name": "567", "class_name": "BatchNormalization", "config": {"name": "567", "trainable": true, "dtype": "float32", "axis": 1, "momentum": 0.8999999761581421, "epsilon": 9.999999747378752e-06, "center": true, "scale": true, "beta_initializer": {"class_name": "Zeros", "config": {}}, "gamma_initializer": {"class_name": "Ones", "config": {}}, "moving_mean_initializer": {"class_name": "Zeros", "config": {}}, "moving_variance_initializer": {"class_name": "Ones", "config": {}}, "beta_regularizer": null, "gamma_regularizer": null, "beta_constraint": null, "gamma_constraint": null}, "inbound_nodes": [[["566", 0, 0, {}]]]}, {"name": "568", "class_name": "Conv2DTranspose", "config": {"name": "568", "trainable": true, "dtype": "float32", "filters": 24, "kernel_size": [4, 4], "strides": [2, 2], "padding": "valid", "data_format": "channels_first", "dilation_rate": [1, 1], "activation": "linear", "use_bias": true, "kernel_initializer": {"class_name": "Zeros", "config": {}}, "bias_initializer": {"class_name": "Zeros", "config": {}}, "kernel_regularizer": null, "bias_regularizer": null, "activity_regularizer": null, "kernel_constraint": null, "bias_constraint": null, "output_padding": [0, 0]}, "inbound_nodes": [[["567", 0, 0, {}]]]}, {"name": "568_crop", "class_name": "Cropping2D", "config": {"name": "568_crop", "trainable": true, "dtype": "float32", "cropping": [[1, 1], [1, 1]], "data_format": "channels_first"}, "inbound_nodes": [[["568", 0, 0, {}]]]}, {"name": "569", "class_name": "Concatenate", "config": {"name": "569", "trainable": true, "dtype": "float32", "axis": 1}, "inbound_nodes": [[["423", 0, 0, {}], ["568_crop", 0, 0, {}]]]}, {"name": "570", "class_name": "Conv2D", "config": {"name": "570", "trainable": true, "dtype": "float32", "filters": 288, "kernel_size": [1, 1], "strides": [1, 1], "padding": "valid", "data_format": "channels_first", "dilation_rate": [1, 1], "activation": "linear", "use_bias": false, "kernel_initializer": {"class_name": "Zeros", "config": {}}, "bias_initializer": {"class_name": "Zeros", "config": {}}, "kernel_regularizer": null, "bias_regularizer": null, "activity_regularizer": null, "kernel_constraint": null, "bias_constraint": null}, "inbound_nodes": [[["569", 0, 0, {}]]]}, {"name": "571", "class_name": "BatchNormalization", "config": {"name": "571", "trainable": true, "dtype": "float32", "axis": 1, "momentum": 0.8999999761581421, "epsilon": 9.999999747378752e-06, "center": true, "scale": true, "beta_initializer": {"class_name": "Zeros", "config": {}}, "gamma_initializer": {"class_name": "Ones", "config": {}}, "moving_mean_initializer": {"class_name": "Zeros", "config": {}}, "moving_variance_initializer": {"class_name": "Ones", "config": {}}, "beta_regularizer": null, "gamma_regularizer": null, "beta_constraint": null, "gamma_constraint": null}, "inbound_nodes": [[["570", 0, 0, {}]]]}, {"name": "572", "class_name": "ReLU", "config": {"name": "572", "trainable": true, "dtype": "float32", "max_value": 6.0, "negative_slope": 0.0, "threshold": 0.0}, "inbound_nodes": [[["571", 0, 0, {}]]]}, {"name": "573_pad", "class_name": "ZeroPadding2D", "config": {"name": "573_pad", "trainable": true, "dtype": "float32", "padding": [[1, 1], [1, 1]], "data_format": "channels_first"}, "inbound_nodes": [[["572", 0, 0, {}]]]}, {"name": "573", "class_name": "DepthwiseConv2D", "config": {"name": "573", "trainable": true, "dtype": "float32", "kernel_size": [3, 3], "strides": [1, 1], "padding": "valid", "data_format": "channels_first", "dilation_rate": [1, 1], "activation": "linear", "use_bias": false, "bias_initializer": {"class_name": "Zeros", "config": {}}, "bias_regularizer": null, "activity_regularizer": null, "bias_constraint": null, "depth_multiplier": 1, "depthwise_initializer": {"class_name": "VarianceScaling", "config": {"scale": 1.0, "mode": "fan_avg", "distribution": "uniform", "seed": null}}, "depthwise_regularizer": null, "depthwise_constraint": null}, "inbound_nodes": [[["573_pad", 0, 0, {}]]]}, {"name": "574", "class_name": "BatchNormalization", "config": {"name": "574", "trainable": true, "dtype": "float32", "axis": 1, "momentum": 0.8999999761581421, "epsilon": 9.999999747378752e-06, "center": true, "scale": true, "beta_initializer": {"class_name": "Zeros", "config": {}}, "gamma_initializer": {"class_name": "Ones", "config": {}}, "moving_mean_initializer": {"class_name": "Zeros", "config": {}}, "moving_variance_initializer": {"class_name": "Ones", "config": {}}, "beta_regularizer": null, "gamma_regularizer": null, "beta_constraint": null, "gamma_constraint": null}, "inbound_nodes": [[["573", 0, 0, {}]]]}, {"name": "575", "class_name": "ReLU", "config": {"name": "575", "trainable": true, "dtype": "float32", "max_value": 6.0, "negative_slope": 0.0, "threshold": 0.0}, "inbound_nodes": [[["574", 0, 0, {}]]]}, {"name": "576", "class_name": "Conv2D", "config": {"name": "576", "trainable": true, "dtype": "float32", "filters": 24, "kernel_size": [1, 1], "strides": [1, 1], "padding": "valid", "data_format": "channels_first", "dilation_rate": [1, 1], "activation": "linear", "use_bias": false, "kernel_initializer": {"class_name": "Zeros", "config": {}}, "bias_initializer": {"class_name": "Zeros", "config": {}}, "kernel_regularizer": null, "bias_regularizer": null, "activity_regularizer": null, "kernel_constraint": null, "bias_constraint": null}, "inbound_nodes": [[["575", 0, 0, {}]]]}, {"name": "577", "class_name": "BatchNormalization", "config": {"name": "577", "trainable": true, "dtype": "float32", "axis": 1, "momentum": 0.8999999761581421, "epsilon": 9.999999747378752e-06, "center": true, "scale": true, "beta_initializer": {"class_name": "Zeros", "config": {}}, "gamma_initializer": {"class_name": "Ones", "config": {}}, "moving_mean_initializer": {"class_name": "Zeros", "config": {}}, "moving_variance_initializer": {"class_name": "Ones", "config": {}}, "beta_regularizer": null, "gamma_regularizer": null, "beta_constraint": null, "gamma_constraint": null}, "inbound_nodes": [[["576", 0, 0, {}]]]}, {"name": "578", "class_name": "Conv2DTranspose", "config": {"name": "578", "trainable": true, "dtype": "float32", "filters": 16, "kernel_size": [4, 4], "strides": [2, 2], "padding": "valid", "data_format": "channels_first", "dilation_rate": [1, 1], "activation": "linear", "use_bias": true, "kernel_initializer": {"class_name": "Zeros", "config": {}}, "bias_initializer": {"class_name": "Zeros", "config": {}}, "kernel_regularizer": null, "bias_regularizer": null, "activity_regularizer": null, "kernel_constraint": null, "bias_constraint": null, "output_padding": [0, 0]}, "inbound_nodes": [[["577", 0, 0, {}]]]}, {"name": "578_crop", "class_name": "Cropping2D", "config": {"name": "578_crop", "trainable": true, "dtype": "float32", "cropping": [[1, 1], [1, 1]], "data_format": "channels_first"}, "inbound_nodes": [[["578", 0, 0, {}]]]}, {"name": "579", "class_name": "Concatenate", "config": {"name": "579", "trainable": true, "dtype": "float32", "axis": 1}, "inbound_nodes": [[["406", 0, 0, {}], ["578_crop", 0, 0, {}]]]}, {"name": "580", "class_name": "Conv2D", "config": {"name": "580", "trainable": true, "dtype": "float32", "filters": 192, "kernel_size": [1, 1], "strides": [1, 1], "padding": "valid", "data_format": "channels_first", "dilation_rate": [1, 1], "activation": "linear", "use_bias": false, "kernel_initializer": {"class_name": "Zeros", "config": {}}, "bias_initializer": {"class_name": "Zeros", "config": {}}, "kernel_regularizer": null, "bias_regularizer": null, "activity_regularizer": null, "kernel_constraint": null, "bias_constraint": null}, "inbound_nodes": [[["579", 0, 0, {}]]]}, {"name": "581", "class_name": "BatchNormalization", "config": {"name": "581", "trainable": true, "dtype": "float32", "axis": 1, "momentum": 0.8999999761581421, "epsilon": 9.999999747378752e-06, "center": true, "scale": true, "beta_initializer": {"class_name": "Zeros", "config": {}}, "gamma_initializer": {"class_name": "Ones", "config": {}}, "moving_mean_initializer": {"class_name": "Zeros", "config": {}}, "moving_variance_initializer": {"class_name": "Ones", "config": {}}, "beta_regularizer": null, "gamma_regularizer": null, "beta_constraint": null, "gamma_constraint": null}, "inbound_nodes": [[["580", 0, 0, {}]]]}, {"name": "582", "class_name": "ReLU", "config": {"name": "582", "trainable": true, "dtype": "float32", "max_value": 6.0, "negative_slope": 0.0, "threshold": 0.0}, "inbound_nodes": [[["581", 0, 0, {}]]]}, {"name": "583_pad", "class_name": "ZeroPadding2D", "config": {"name": "583_pad", "trainable": true, "dtype": "float32", "padding": [[1, 1], [1, 1]], "data_format": "channels_first"}, "inbound_nodes": [[["582", 0, 0, {}]]]}, {"name": "583", "class_name": "DepthwiseConv2D", "config": {"name": "583", "trainable": true, "dtype": "float32", "kernel_size": [3, 3], "strides": [1, 1], "padding": "valid", "data_format": "channels_first", "dilation_rate": [1, 1], "activation": "linear", "use_bias": false, "bias_initializer": {"class_name": "Zeros", "config": {}}, "bias_regularizer": null, "activity_regularizer": null, "bias_constraint": null, "depth_multiplier": 1, "depthwise_initializer": {"class_name": "VarianceScaling", "config": {"scale": 1.0, "mode": "fan_avg", "distribution": "uniform", "seed": null}}, "depthwise_regularizer": null, "depthwise_constraint": null}, "inbound_nodes": [[["583_pad", 0, 0, {}]]]}, {"name": "584", "class_name": "BatchNormalization", "config": {"name": "584", "trainable": true, "dtype": "float32", "axis": 1, "momentum": 0.8999999761581421, "epsilon": 9.999999747378752e-06, "center": true, "scale": true, "beta_initializer": {"class_name": "Zeros", "config": {}}, "gamma_initializer": {"class_name": "Ones", "config": {}}, "moving_mean_initializer": {"class_name": "Zeros", "config": {}}, "moving_variance_initializer": {"class_name": "Ones", "config": {}}, "beta_regularizer": null, "gamma_regularizer": null, "beta_constraint": null, "gamma_constraint": null}, "inbound_nodes": [[["583", 0, 0, {}]]]}, {"name": "585", "class_name": "ReLU", "config": {"name": "585", "trainable": true, "dtype": "float32", "max_value": 6.0, "negative_slope": 0.0, "threshold": 0.0}, "inbound_nodes": [[["584", 0, 0, {}]]]}, {"name": "586", "class_name": "Conv2D", "config": {"name": "586", "trainable": true, "dtype": "float32", "filters": 16, "kernel_size": [1, 1], "strides": [1, 1], "padding": "valid", "data_format": "channels_first", "dilation_rate": [1, 1], "activation": "linear", "use_bias": false, "kernel_initializer": {"class_name": "Zeros", "config": {}}, "bias_initializer": {"class_name": "Zeros", "config": {}}, "kernel_regularizer": null, "bias_regularizer": null, "activity_regularizer": null, "kernel_constraint": null, "bias_constraint": null}, "inbound_nodes": [[["585", 0, 0, {}]]]}, {"name": "587", "class_name": "BatchNormalization", "config": {"name": "587", "trainable": true, "dtype": "float32", "axis": 1, "momentum": 0.8999999761581421, "epsilon": 9.999999747378752e-06, "center": true, "scale": true, "beta_initializer": {"class_name": "Zeros", "config": {}}, "gamma_initializer": {"class_name": "Ones", "config": {}}, "moving_mean_initializer": {"class_name": "Zeros", "config": {}}, "moving_variance_initializer": {"class_name": "Ones", "config": {}}, "beta_regularizer": null, "gamma_regularizer": null, "beta_constraint": null, "gamma_constraint": null}, "inbound_nodes": [[["586", 0, 0, {}]]]}, {"name": "588", "class_name": "Conv2D", "config": {"name": "588", "trainable": true, "dtype": "float32", "filters": 3, "kernel_size": [1, 1], "strides": [1, 1], "padding": "valid", "data_format": "channels_first", "dilation_rate": [1, 1], "activation": "linear", "use_bias": true, "kernel_initializer": {"class_name": "Zeros", "config": {}}, "bias_initializer": {"class_name": "Zeros", "config": {}}, "kernel_regularizer": null, "bias_regularizer": null, "activity_regularizer": null, "kernel_constraint": null, "bias_constraint": null}, "inbound_nodes": [[["587", 0, 0, {}]]]}, {"name": "589", "class_name": "Conv2D", "config": {"name": "589", "trainable": true, "dtype": "float32", "filters": 1, "kernel_size": [1, 1], "strides": [1, 1], "padding": "valid", "data_format": "channels_first", "dilation_rate": [1, 1], "activation": "linear", "use_bias": true, "kernel_initializer": {"class_name": "Zeros", "config": {}}, "bias_initializer": {"class_name": "Zeros", "config": {}}, "kernel_regularizer": null, "bias_regularizer": null, "activity_regularizer": null, "kernel_constraint": null, "bias_constraint": null}, "inbound_nodes": [[["588", 0, 0, {}]]]}, {"name": "output_0", "class_name": "Activation", "config": {"name": "output_0", "trainable": true, "dtype": "float32", "activation": "sigmoid"}, "inbound_nodes": [[["589", 0, 0, {}]]]}], "input_layers": [["input_0", 0, 0]], "output_layers": [["output_0", 0, 0]]}}}, "weightsManifest": [{"paths": ["group1-shard1of5.bin", "group1-shard2of5.bin", "group1-shard3of5.bin", "group1-shard4of5.bin", "group1-shard5of5.bin"], "weights": [{"name": "399_1/kernel", "shape": [3, 3, 3, 32], "dtype": "float32"}, {"name": "400_1/gamma", "shape": [32], "dtype": "float32"}, {"name": "400_1/beta", "shape": [32], "dtype": "float32"}, {"name": "400_1/moving_mean", "shape": [32], "dtype": "float32"}, {"name": "400_1/moving_variance", "shape": [32], "dtype": "float32"}, {"name": "402_1/depthwise_kernel", "shape": [3, 3, 32, 1], "dtype": "float32"}, {"name": "403_1/gamma", "shape": [32], "dtype": "float32"}, {"name": "403_1/beta", "shape": [32], "dtype": "float32"}, {"name": "403_1/moving_mean", "shape": [32], "dtype": "float32"}, {"name": "403_1/moving_variance", "shape": [32], "dtype": "float32"}, {"name": "405_1/kernel", "shape": [1, 1, 32, 16], "dtype": "float32"}, {"name": "406_1/gamma", "shape": [16], "dtype": "float32"}, {"name": "406_1/beta", "shape": [16], "dtype": "float32"}, {"name": "406_1/moving_mean", "shape": [16], "dtype": "float32"}, {"name": "406_1/moving_variance", "shape": [16], "dtype": "float32"}, {"name": "407_1/kernel", "shape": [1, 1, 16, 96], "dtype": "float32"}, {"name": "408_1/gamma", "shape": [96], "dtype": "float32"}, {"name": "408_1/beta", "shape": [96], "dtype": "float32"}, {"name": "408_1/moving_mean", "shape": [96], "dtype": "float32"}, {"name": "408_1/moving_variance", "shape": [96], "dtype": "float32"}, {"name": "410_1/depthwise_kernel", "shape": [3, 3, 96, 1], "dtype": "float32"}, {"name": "411_1/gamma", "shape": [96], "dtype": "float32"}, {"name": "411_1/beta", "shape": [96], "dtype": "float32"}, {"name": "411_1/moving_mean", "shape": [96], "dtype": "float32"}, {"name": "411_1/moving_variance", "shape": [96], "dtype": "float32"}, {"name": "413_1/kernel", "shape": [1, 1, 96, 24], "dtype": "float32"}, {"name": "414_1/gamma", "shape": [24], "dtype": "float32"}, {"name": "414_1/beta", "shape": [24], "dtype": "float32"}, {"name": "414_1/moving_mean", "shape": [24], "dtype": "float32"}, {"name": "414_1/moving_variance", "shape": [24], "dtype": "float32"}, {"name": "415_1/kernel", "shape": [1, 1, 24, 144], "dtype": "float32"}, {"name": "416_1/gamma", "shape": [144], "dtype": "float32"}, {"name": "416_1/beta", "shape": [144], "dtype": "float32"}, {"name": "416_1/moving_mean", "shape": [144], "dtype": "float32"}, {"name": "416_1/moving_variance", "shape": [144], "dtype": "float32"}, {"name": "418_1/depthwise_kernel", "shape": [3, 3, 144, 1], "dtype": "float32"}, {"name": "419_1/gamma", "shape": [144], "dtype": "float32"}, {"name": "419_1/beta", "shape": [144], "dtype": "float32"}, {"name": "419_1/moving_mean", "shape": [144], "dtype": "float32"}, {"name": "419_1/moving_variance", "shape": [144], "dtype": "float32"}, {"name": "421_1/kernel", "shape": [1, 1, 144, 24], "dtype": "float32"}, {"name": "422_1/gamma", "shape": [24], "dtype": "float32"}, {"name": "422_1/beta", "shape": [24], "dtype": "float32"}, {"name": "422_1/moving_mean", "shape": [24], "dtype": "float32"}, {"name": "422_1/moving_variance", "shape": [24], "dtype": "float32"}, {"name": "424_1/kernel", "shape": [1, 1, 24, 144], "dtype": "float32"}, {"name": "425_1/gamma", "shape": [144], "dtype": "float32"}, {"name": "425_1/beta", "shape": [144], "dtype": "float32"}, {"name": "425_1/moving_mean", "shape": [144], "dtype": "float32"}, {"name": "425_1/moving_variance", "shape": [144], "dtype": "float32"}, {"name": "427_1/depthwise_kernel", "shape": [3, 3, 144, 1], "dtype": "float32"}, {"name": "428_1/gamma", "shape": [144], "dtype": "float32"}, {"name": "428_1/beta", "shape": [144], "dtype": "float32"}, {"name": "428_1/moving_mean", "shape": [144], "dtype": "float32"}, {"name": "428_1/moving_variance", "shape": [144], "dtype": "float32"}, {"name": "430_1/kernel", "shape": [1, 1, 144, 32], "dtype": "float32"}, {"name": "431_1/gamma", "shape": [32], "dtype": "float32"}, {"name": "431_1/beta", "shape": [32], "dtype": "float32"}, {"name": "431_1/moving_mean", "shape": [32], "dtype": "float32"}, {"name": "431_1/moving_variance", "shape": [32], "dtype": "float32"}, {"name": "432_1/kernel", "shape": [1, 1, 32, 192], "dtype": "float32"}, {"name": "433_1/gamma", "shape": [192], "dtype": "float32"}, {"name": "433_1/beta", "shape": [192], "dtype": "float32"}, {"name": "433_1/moving_mean", "shape": [192], "dtype": "float32"}, {"name": "433_1/moving_variance", "shape": [192], "dtype": "float32"}, {"name": "435_1/depthwise_kernel", "shape": [3, 3, 192, 1], "dtype": "float32"}, {"name": "436_1/gamma", "shape": [192], "dtype": "float32"}, {"name": "436_1/beta", "shape": [192], "dtype": "float32"}, {"name": "436_1/moving_mean", "shape": [192], "dtype": "float32"}, {"name": "436_1/moving_variance", "shape": [192], "dtype": "float32"}, {"name": "438_1/kernel", "shape": [1, 1, 192, 32], "dtype": "float32"}, {"name": "439_1/gamma", "shape": [32], "dtype": "float32"}, {"name": "439_1/beta", "shape": [32], "dtype": "float32"}, {"name": "439_1/moving_mean", "shape": [32], "dtype": "float32"}, {"name": "439_1/moving_variance", "shape": [32], "dtype": "float32"}, {"name": "441_1/kernel", "shape": [1, 1, 32, 192], "dtype": "float32"}, {"name": "442_1/gamma", "shape": [192], "dtype": "float32"}, {"name": "442_1/beta", "shape": [192], "dtype": "float32"}, {"name": "442_1/moving_mean", "shape": [192], "dtype": "float32"}, {"name": "442_1/moving_variance", "shape": [192], "dtype": "float32"}, {"name": "444_1/depthwise_kernel", "shape": [3, 3, 192, 1], "dtype": "float32"}, {"name": "445_1/gamma", "shape": [192], "dtype": "float32"}, {"name": "445_1/beta", "shape": [192], "dtype": "float32"}, {"name": "445_1/moving_mean", "shape": [192], "dtype": "float32"}, {"name": "445_1/moving_variance", "shape": [192], "dtype": "float32"}, {"name": "447_1/kernel", "shape": [1, 1, 192, 32], "dtype": "float32"}, {"name": "448_1/gamma", "shape": [32], "dtype": "float32"}, {"name": "448_1/beta", "shape": [32], "dtype": "float32"}, {"name": "448_1/moving_mean", "shape": [32], "dtype": "float32"}, {"name": "448_1/moving_variance", "shape": [32], "dtype": "float32"}, {"name": "450_1/kernel", "shape": [1, 1, 32, 192], "dtype": "float32"}, {"name": "451_1/gamma", "shape": [192], "dtype": "float32"}, {"name": "451_1/beta", "shape": [192], "dtype": "float32"}, {"name": "451_1/moving_mean", "shape": [192], "dtype": "float32"}, {"name": "451_1/moving_variance", "shape": [192], "dtype": "float32"}, {"name": "453_1/depthwise_kernel", "shape": [3, 3, 192, 1], "dtype": "float32"}, {"name": "454_1/gamma", "shape": [192], "dtype": "float32"}, {"name": "454_1/beta", "shape": [192], "dtype": "float32"}, {"name": "454_1/moving_mean", "shape": [192], "dtype": "float32"}, {"name": "454_1/moving_variance", "shape": [192], "dtype": "float32"}, {"name": "456_1/kernel", "shape": [1, 1, 192, 64], "dtype": "float32"}, {"name": "457_1/gamma", "shape": [64], "dtype": "float32"}, {"name": "457_1/beta", "shape": [64], "dtype": "float32"}, {"name": "457_1/moving_mean", "shape": [64], "dtype": "float32"}, {"name": "457_1/moving_variance", "shape": [64], "dtype": "float32"}, {"name": "458_1/kernel", "shape": [1, 1, 64, 384], "dtype": "float32"}, {"name": "459_1/gamma", "shape": [384], "dtype": "float32"}, {"name": "459_1/beta", "shape": [384], "dtype": "float32"}, {"name": "459_1/moving_mean", "shape": [384], "dtype": "float32"}, {"name": "459_1/moving_variance", "shape": [384], "dtype": "float32"}, {"name": "461_1/depthwise_kernel", "shape": [3, 3, 384, 1], "dtype": "float32"}, {"name": "462_1/gamma", "shape": [384], "dtype": "float32"}, {"name": "462_1/beta", "shape": [384], "dtype": "float32"}, {"name": "462_1/moving_mean", "shape": [384], "dtype": "float32"}, {"name": "462_1/moving_variance", "shape": [384], "dtype": "float32"}, {"name": "464_1/kernel", "shape": [1, 1, 384, 64], "dtype": "float32"}, {"name": "465_1/gamma", "shape": [64], "dtype": "float32"}, {"name": "465_1/beta", "shape": [64], "dtype": "float32"}, {"name": "465_1/moving_mean", "shape": [64], "dtype": "float32"}, {"name": "465_1/moving_variance", "shape": [64], "dtype": "float32"}, {"name": "467_1/kernel", "shape": [1, 1, 64, 384], "dtype": "float32"}, {"name": "468_1/gamma", "shape": [384], "dtype": "float32"}, {"name": "468_1/beta", "shape": [384], "dtype": "float32"}, {"name": "468_1/moving_mean", "shape": [384], "dtype": "float32"}, {"name": "468_1/moving_variance", "shape": [384], "dtype": "float32"}, {"name": "470_1/depthwise_kernel", "shape": [3, 3, 384, 1], "dtype": "float32"}, {"name": "471_1/gamma", "shape": [384], "dtype": "float32"}, {"name": "471_1/beta", "shape": [384], "dtype": "float32"}, {"name": "471_1/moving_mean", "shape": [384], "dtype": "float32"}, {"name": "471_1/moving_variance", "shape": [384], "dtype": "float32"}, {"name": "473_1/kernel", "shape": [1, 1, 384, 64], "dtype": "float32"}, {"name": "474_1/gamma", "shape": [64], "dtype": "float32"}, {"name": "474_1/beta", "shape": [64], "dtype": "float32"}, {"name": "474_1/moving_mean", "shape": [64], "dtype": "float32"}, {"name": "474_1/moving_variance", "shape": [64], "dtype": "float32"}, {"name": "476_1/kernel", "shape": [1, 1, 64, 384], "dtype": "float32"}, {"name": "477_1/gamma", "shape": [384], "dtype": "float32"}, {"name": "477_1/beta", "shape": [384], "dtype": "float32"}, {"name": "477_1/moving_mean", "shape": [384], "dtype": "float32"}, {"name": "477_1/moving_variance", "shape": [384], "dtype": "float32"}, {"name": "479_1/depthwise_kernel", "shape": [3, 3, 384, 1], "dtype": "float32"}, {"name": "480_1/gamma", "shape": [384], "dtype": "float32"}, {"name": "480_1/beta", "shape": [384], "dtype": "float32"}, {"name": "480_1/moving_mean", "shape": [384], "dtype": "float32"}, {"name": "480_1/moving_variance", "shape": [384], "dtype": "float32"}, {"name": "482_1/kernel", "shape": [1, 1, 384, 64], "dtype": "float32"}, {"name": "483_1/gamma", "shape": [64], "dtype": "float32"}, {"name": "483_1/beta", "shape": [64], "dtype": "float32"}, {"name": "483_1/moving_mean", "shape": [64], "dtype": "float32"}, {"name": "483_1/moving_variance", "shape": [64], "dtype": "float32"}, {"name": "485_1/kernel", "shape": [1, 1, 64, 384], "dtype": "float32"}, {"name": "486_1/gamma", "shape": [384], "dtype": "float32"}, {"name": "486_1/beta", "shape": [384], "dtype": "float32"}, {"name": "486_1/moving_mean", "shape": [384], "dtype": "float32"}, {"name": "486_1/moving_variance", "shape": [384], "dtype": "float32"}, {"name": "488_1/depthwise_kernel", "shape": [3, 3, 384, 1], "dtype": "float32"}, {"name": "489_1/gamma", "shape": [384], "dtype": "float32"}, {"name": "489_1/beta", "shape": [384], "dtype": "float32"}, {"name": "489_1/moving_mean", "shape": [384], "dtype": "float32"}, {"name": "489_1/moving_variance", "shape": [384], "dtype": "float32"}, {"name": "491_1/kernel", "shape": [1, 1, 384, 96], "dtype": "float32"}, {"name": "492_1/gamma", "shape": [96], "dtype": "float32"}, {"name": "492_1/beta", "shape": [96], "dtype": "float32"}, {"name": "492_1/moving_mean", "shape": [96], "dtype": "float32"}, {"name": "492_1/moving_variance", "shape": [96], "dtype": "float32"}, {"name": "493_1/kernel", "shape": [1, 1, 96, 576], "dtype": "float32"}, {"name": "494_1/gamma", "shape": [576], "dtype": "float32"}, {"name": "494_1/beta", "shape": [576], "dtype": "float32"}, {"name": "494_1/moving_mean", "shape": [576], "dtype": "float32"}, {"name": "494_1/moving_variance", "shape": [576], "dtype": "float32"}, {"name": "496_1/depthwise_kernel", "shape": [3, 3, 576, 1], "dtype": "float32"}, {"name": "497_1/gamma", "shape": [576], "dtype": "float32"}, {"name": "497_1/beta", "shape": [576], "dtype": "float32"}, {"name": "497_1/moving_mean", "shape": [576], "dtype": "float32"}, {"name": "497_1/moving_variance", "shape": [576], "dtype": "float32"}, {"name": "499_1/kernel", "shape": [1, 1, 576, 96], "dtype": "float32"}, {"name": "500_1/gamma", "shape": [96], "dtype": "float32"}, {"name": "500_1/beta", "shape": [96], "dtype": "float32"}, {"name": "500_1/moving_mean", "shape": [96], "dtype": "float32"}, {"name": "500_1/moving_variance", "shape": [96], "dtype": "float32"}, {"name": "502_1/kernel", "shape": [1, 1, 96, 576], "dtype": "float32"}, {"name": "503_1/gamma", "shape": [576], "dtype": "float32"}, {"name": "503_1/beta", "shape": [576], "dtype": "float32"}, {"name": "503_1/moving_mean", "shape": [576], "dtype": "float32"}, {"name": "503_1/moving_variance", "shape": [576], "dtype": "float32"}, {"name": "505_1/depthwise_kernel", "shape": [3, 3, 576, 1], "dtype": "float32"}, {"name": "506_1/gamma", "shape": [576], "dtype": "float32"}, {"name": "506_1/beta", "shape": [576], "dtype": "float32"}, {"name": "506_1/moving_mean", "shape": [576], "dtype": "float32"}, {"name": "506_1/moving_variance", "shape": [576], "dtype": "float32"}, {"name": "508_1/kernel", "shape": [1, 1, 576, 96], "dtype": "float32"}, {"name": "509_1/gamma", "shape": [96], "dtype": "float32"}, {"name": "509_1/beta", "shape": [96], "dtype": "float32"}, {"name": "509_1/moving_mean", "shape": [96], "dtype": "float32"}, {"name": "509_1/moving_variance", "shape": [96], "dtype": "float32"}, {"name": "511_1/kernel", "shape": [1, 1, 96, 576], "dtype": "float32"}, {"name": "512_1/gamma", "shape": [576], "dtype": "float32"}, {"name": "512_1/beta", "shape": [576], "dtype": "float32"}, {"name": "512_1/moving_mean", "shape": [576], "dtype": "float32"}, {"name": "512_1/moving_variance", "shape": [576], "dtype": "float32"}, {"name": "514_1/depthwise_kernel", "shape": [3, 3, 576, 1], "dtype": "float32"}, {"name": "515_1/gamma", "shape": [576], "dtype": "float32"}, {"name": "515_1/beta", "shape": [576], "dtype": "float32"}, {"name": "515_1/moving_mean", "shape": [576], "dtype": "float32"}, {"name": "515_1/moving_variance", "shape": [576], "dtype": "float32"}, {"name": "517_1/kernel", "shape": [1, 1, 576, 160], "dtype": "float32"}, {"name": "518_1/gamma", "shape": [160], "dtype": "float32"}, {"name": "518_1/beta", "shape": [160], "dtype": "float32"}, {"name": "518_1/moving_mean", "shape": [160], "dtype": "float32"}, {"name": "518_1/moving_variance", "shape": [160], "dtype": "float32"}, {"name": "519_1/kernel", "shape": [1, 1, 160, 960], "dtype": "float32"}, {"name": "520_1/gamma", "shape": [960], "dtype": "float32"}, {"name": "520_1/beta", "shape": [960], "dtype": "float32"}, {"name": "520_1/moving_mean", "shape": [960], "dtype": "float32"}, {"name": "520_1/moving_variance", "shape": [960], "dtype": "float32"}, {"name": "522_1/depthwise_kernel", "shape": [3, 3, 960, 1], "dtype": "float32"}, {"name": "523_1/gamma", "shape": [960], "dtype": "float32"}, {"name": "523_1/beta", "shape": [960], "dtype": "float32"}, {"name": "523_1/moving_mean", "shape": [960], "dtype": "float32"}, {"name": "523_1/moving_variance", "shape": [960], "dtype": "float32"}, {"name": "525_1/kernel", "shape": [1, 1, 960, 160], "dtype": "float32"}, {"name": "526_1/gamma", "shape": [160], "dtype": "float32"}, {"name": "526_1/beta", "shape": [160], "dtype": "float32"}, {"name": "526_1/moving_mean", "shape": [160], "dtype": "float32"}, {"name": "526_1/moving_variance", "shape": [160], "dtype": "float32"}, {"name": "528_1/kernel", "shape": [1, 1, 160, 960], "dtype": "float32"}, {"name": "529_1/gamma", "shape": [960], "dtype": "float32"}, {"name": "529_1/beta", "shape": [960], "dtype": "float32"}, {"name": "529_1/moving_mean", "shape": [960], "dtype": "float32"}, {"name": "529_1/moving_variance", "shape": [960], "dtype": "float32"}, {"name": "531_1/depthwise_kernel", "shape": [3, 3, 960, 1], "dtype": "float32"}, {"name": "532_1/gamma", "shape": [960], "dtype": "float32"}, {"name": "532_1/beta", "shape": [960], "dtype": "float32"}, {"name": "532_1/moving_mean", "shape": [960], "dtype": "float32"}, {"name": "532_1/moving_variance", "shape": [960], "dtype": "float32"}, {"name": "534_1/kernel", "shape": [1, 1, 960, 160], "dtype": "float32"}, {"name": "535_1/gamma", "shape": [160], "dtype": "float32"}, {"name": "535_1/beta", "shape": [160], "dtype": "float32"}, {"name": "535_1/moving_mean", "shape": [160], "dtype": "float32"}, {"name": "535_1/moving_variance", "shape": [160], "dtype": "float32"}, {"name": "537_1/kernel", "shape": [1, 1, 160, 960], "dtype": "float32"}, {"name": "538_1/gamma", "shape": [960], "dtype": "float32"}, {"name": "538_1/beta", "shape": [960], "dtype": "float32"}, {"name": "538_1/moving_mean", "shape": [960], "dtype": "float32"}, {"name": "538_1/moving_variance", "shape": [960], "dtype": "float32"}, {"name": "540_1/depthwise_kernel", "shape": [3, 3, 960, 1], "dtype": "float32"}, {"name": "541_1/gamma", "shape": [960], "dtype": "float32"}, {"name": "541_1/beta", "shape": [960], "dtype": "float32"}, {"name": "541_1/moving_mean", "shape": [960], "dtype": "float32"}, {"name": "541_1/moving_variance", "shape": [960], "dtype": "float32"}, {"name": "543_1/kernel", "shape": [1, 1, 960, 320], "dtype": "float32"}, {"name": "544_1/gamma", "shape": [320], "dtype": "float32"}, {"name": "544_1/beta", "shape": [320], "dtype": "float32"}, {"name": "544_1/moving_mean", "shape": [320], "dtype": "float32"}, {"name": "544_1/moving_variance", "shape": [320], "dtype": "float32"}, {"name": "545_1/kernel", "shape": [1, 1, 320, 1280], "dtype": "float32"}, {"name": "546_1/gamma", "shape": [1280], "dtype": "float32"}, {"name": "546_1/beta", "shape": [1280], "dtype": "float32"}, {"name": "546_1/moving_mean", "shape": [1280], "dtype": "float32"}, {"name": "546_1/moving_variance", "shape": [1280], "dtype": "float32"}, {"name": "548_1/kernel", "shape": [4, 4, 96, 1280], "dtype": "float32"}, {"name": "548_1/bias", "shape": [96], "dtype": "float32"}, {"name": "550_1/kernel", "shape": [1, 1, 192, 1152], "dtype": "float32"}, {"name": "551_1/gamma", "shape": [1152], "dtype": "float32"}, {"name": "551_1/beta", "shape": [1152], "dtype": "float32"}, {"name": "551_1/moving_mean", "shape": [1152], "dtype": "float32"}, {"name": "551_1/moving_variance", "shape": [1152], "dtype": "float32"}, {"name": "553_1/depthwise_kernel", "shape": [3, 3, 1152, 1], "dtype": "float32"}, {"name": "554_1/gamma", "shape": [1152], "dtype": "float32"}, {"name": "554_1/beta", "shape": [1152], "dtype": "float32"}, {"name": "554_1/moving_mean", "shape": [1152], "dtype": "float32"}, {"name": "554_1/moving_variance", "shape": [1152], "dtype": "float32"}, {"name": "556_1/kernel", "shape": [1, 1, 1152, 96], "dtype": "float32"}, {"name": "557_1/gamma", "shape": [96], "dtype": "float32"}, {"name": "557_1/beta", "shape": [96], "dtype": "float32"}, {"name": "557_1/moving_mean", "shape": [96], "dtype": "float32"}, {"name": "557_1/moving_variance", "shape": [96], "dtype": "float32"}, {"name": "558_1/kernel", "shape": [4, 4, 32, 96], "dtype": "float32"}, {"name": "558_1/bias", "shape": [32], "dtype": "float32"}, {"name": "560_1/kernel", "shape": [1, 1, 64, 384], "dtype": "float32"}, {"name": "561_1/gamma", "shape": [384], "dtype": "float32"}, {"name": "561_1/beta", "shape": [384], "dtype": "float32"}, {"name": "561_1/moving_mean", "shape": [384], "dtype": "float32"}, {"name": "561_1/moving_variance", "shape": [384], "dtype": "float32"}, {"name": "563_1/depthwise_kernel", "shape": [3, 3, 384, 1], "dtype": "float32"}, {"name": "564_1/gamma", "shape": [384], "dtype": "float32"}, {"name": "564_1/beta", "shape": [384], "dtype": "float32"}, {"name": "564_1/moving_mean", "shape": [384], "dtype": "float32"}, {"name": "564_1/moving_variance", "shape": [384], "dtype": "float32"}, {"name": "566_1/kernel", "shape": [1, 1, 384, 32], "dtype": "float32"}, {"name": "567_1/gamma", "shape": [32], "dtype": "float32"}, {"name": "567_1/beta", "shape": [32], "dtype": "float32"}, {"name": "567_1/moving_mean", "shape": [32], "dtype": "float32"}, {"name": "567_1/moving_variance", "shape": [32], "dtype": "float32"}, {"name": "568_1/kernel", "shape": [4, 4, 24, 32], "dtype": "float32"}, {"name": "568_1/bias", "shape": [24], "dtype": "float32"}, {"name": "570_1/kernel", "shape": [1, 1, 48, 288], "dtype": "float32"}, {"name": "571_1/gamma", "shape": [288], "dtype": "float32"}, {"name": "571_1/beta", "shape": [288], "dtype": "float32"}, {"name": "571_1/moving_mean", "shape": [288], "dtype": "float32"}, {"name": "571_1/moving_variance", "shape": [288], "dtype": "float32"}, {"name": "573_1/depthwise_kernel", "shape": [3, 3, 288, 1], "dtype": "float32"}, {"name": "574_1/gamma", "shape": [288], "dtype": "float32"}, {"name": "574_1/beta", "shape": [288], "dtype": "float32"}, {"name": "574_1/moving_mean", "shape": [288], "dtype": "float32"}, {"name": "574_1/moving_variance", "shape": [288], "dtype": "float32"}, {"name": "576_1/kernel", "shape": [1, 1, 288, 24], "dtype": "float32"}, {"name": "577_1/gamma", "shape": [24], "dtype": "float32"}, {"name": "577_1/beta", "shape": [24], "dtype": "float32"}, {"name": "577_1/moving_mean", "shape": [24], "dtype": "float32"}, {"name": "577_1/moving_variance", "shape": [24], "dtype": "float32"}, {"name": "578_1/kernel", "shape": [4, 4, 16, 24], "dtype": "float32"}, {"name": "578_1/bias", "shape": [16], "dtype": "float32"}, {"name": "580_1/kernel", "shape": [1, 1, 32, 192], "dtype": "float32"}, {"name": "581_1/gamma", "shape": [192], "dtype": "float32"}, {"name": "581_1/beta", "shape": [192], "dtype": "float32"}, {"name": "581_1/moving_mean", "shape": [192], "dtype": "float32"}, {"name": "581_1/moving_variance", "shape": [192], "dtype": "float32"}, {"name": "583_1/depthwise_kernel", "shape": [3, 3, 192, 1], "dtype": "float32"}, {"name": "584_1/gamma", "shape": [192], "dtype": "float32"}, {"name": "584_1/beta", "shape": [192], "dtype": "float32"}, {"name": "584_1/moving_mean", "shape": [192], "dtype": "float32"}, {"name": "584_1/moving_variance", "shape": [192], "dtype": "float32"}, {"name": "586_1/kernel", "shape": [1, 1, 192, 16], "dtype": "float32"}, {"name": "587_1/gamma", "shape": [16], "dtype": "float32"}, {"name": "587_1/beta", "shape": [16], "dtype": "float32"}, {"name": "587_1/moving_mean", "shape": [16], "dtype": "float32"}, {"name": "587_1/moving_variance", "shape": [16], "dtype": "float32"}, {"name": "588_1/kernel", "shape": [1, 1, 16, 3], "dtype": "float32"}, {"name": "588_1/bias", "shape": [3], "dtype": "float32"}, {"name": "589_1/kernel", "shape": [1, 1, 3, 1], "dtype": "float32"}, {"name": "589_1/bias", "shape": [1], "dtype": "float32"}]}]}